models/mlp_final.pth (torch, 250607 bytes, 5 tensors)

embed.weight f4 [113, 128]
00000000: dcf8 a4be e1b1 a9be 8545 0b3d 50ff 82be
00000010: 8691 adbe 1a25 a63e 8034 c83e becd 843e
00000020: c1ed dfbe 0d8e 7a3e 9c9f 3fbe dd0a b0be
00000030: c2aa 823e 8380 b8be a7ba c23e fca2 8fbe
00000040: 01c3 eebe ead9 eabd fcf6 cd3e 11f5 123d
00000050: a716 7cbd 8fd7 d53e 31db efbe f22e a7be
00000060: 1aa7 5f3e 57ca ef3e 7403 743e 133d d13e
00000070: f757 c5be 62b5 9f3d f6da efbe 2ff3 27be
00000080: 435f 71be 1f99 ec3e fb8a b8be 1b56 c93e
00000090: f6a0 d63e 7922 9b3e ead9 88be 1ea7 9e3e
000000a0: bf0a ccbe dc33 95be a4c9 69be e065 82be
000000b0: 90e8 073f 953f 203e 7356 c5be bbe6 d73e
000000c0: 5bad de3e 00e0 cd3d 1a5b 15be 2c72 bfbe
000000d0: 1f4a 7c3e 8286 06bf 597a 17be 534f f0be
000000e0: 9981 ccbe 83a4 9c3e 0d35 b3be d0cc bebe
000000f0: 8add 8b3e 509b a8be ff07 c93d cc59 2dbe
00000100: 320a 0fbf 58f4 b4be 98d0 823e e6ed 5f3c
00000110: d0e0 6d3c d1d1 0dbe 4630 813e 4909 833e
00000120: 65ea a5be 60bf d0be df6b 01ba f0c1 89bd
00000130: 880f 83be 8246 113e 6396 8cbe b90e 4ebe
00000140: 459b e3be f70a b53e 2c91 72be 0d9d d53e
00000150: f752 95be ca26 a5be 72bc c2bd 9198 993e
00000160: 1a5d 0f3e d285 b3bd 5ac5 00bf b284 ca3e
00000170: b292 d1bd 9c0a d13e 73c0 dd3e 6735 86be
00000180: 3433 c1be b329 f73e 78c1 c9be 10d5 953e
00000190: e2aa 023e de92 e9be 8ad4 e43e d5b0 613e
000001a0: a3a6 0abf 3ea9 c33e e637 90be 97f7 30be
000001b0: b48a 06bf 48dd b6be 8bd5 4d3e 351d 9f3e
000001c0: ef42 7b3e 60f4 e63e e8bc b03e 6d7b 803e
000001d0: 824a e6be e301 b5be 401d c33e d812 f13e
000001e0: b8fe 083f e59e 6d3e 7e42 dc3e 9dfb c73e
000001f0: 015f a13e b9ee b3be 5be5 3a3e 6a78 7c3e
00000200: 90e2 ac3e 07d3 f8be 14e3 1c3e 48cb 583e
00000210: 1e6d 7c3e ab65 a3be 3e58 4bbe f684 bc3e
00000220: d446 cabe 3562 89be 0136 023e 34b2 d2be
00000230: 9258 cabe ce02 973e 3570 953e 8066 0ebf
00000240: 0327 c4be 5a95 e0be 1915 c73e 04e2 96be
00000250: db99 9cbe 995c 78bd d729 06bf 53e3 acbe
00000260: 878f dcbe 81bc 1ebe 05b4 acbe 39a6 a4be
00000270: 0f0a a2be d308 46be 9ac8 ee3d d4d9 d3be
00000280: 131d 5bbe aad6 2e3e fcc0 b0be 0c3a b5be
00000290: 174e 563c 17a3 fb3e 84f0 d53e ceb0 b33e
000002a0: 3a26 a43e 7222 643d 9741 c93e 1dfe 7bbe
000002b0: a1dc b13e bc7d c13e afe4 883e 5f90 c03e
000002c0: 5178 2dbe 56a1 8e3e 08e6 01bf c76f a93e
000002d0: ab65 e83e 0f2c 94be f94b f3bd d2c0 ebbe
000002e0: b98e a3bd 97ce 57be e140 bfbd d3b1 f93d
000002f0: cc1b 53be 941b 9c3e 6ab0 933e c991 d53d
00000300: 7317 e7be c4ac 913e aa46 843e 69c1 c73e
00000310: 9075 8abe 1c9e a33e 8431 403e 44fe d9be
00000320: 84ca c93e 9471 e0be 7d2a ebbe 54cb 87bd
00000330: e88d b7be 8569 653e 7a5a b43e fd32 eabe
00000340: 3829 7cbe 8278 453e a46a f6be 7220 e33e
00000350: b19f 433e 5ef0 9b3e 9622 b43e 3be0 c8be
00000360: a1a7 a83e 8d98 cdbe 3add 0ebe 34c2 c23e
00000370: 2b39 88be 99bc e5bd 3ad5 eb3e 10ce 92be
00000380: 32c4 a3be bfcf 793e e264 ebbe c05a cb3e
00000390: 1dcb 4bbd 0150 bdbe 782d ca3e de8a 8b3e
000003a0: ff83 dbbe 27ef 9b3e acb7 83bd 9b02 97be
000003b0: 9641 e1be 5349 d5be c657 88be 336c a83e
000003c0: 5c71 bd3e d825 9f3e 69e4 64be d1c8 003f
000003d0: e637 06bf cc45 17be 20e7 2e3e 2459 be3e
000003e0: 86cf 923e 5bad cb3e 995f 7ebe 92b9 e63e
000003f0: b4ca b43e 8dc8 cabe 526d b0be 2c1f 6bbd
-0.32221115 -0.33143523 0.034001846 -0.25585413 -0.33900088 0.3245018 0.39102554 0.2593822
-0.4373608 0.2446825 -0.1871323 -0.34383288 0.25520903 -0.36035547 0.3803303 -0.28054035
-0.4663315 -0.11467345 0.40227497 0.035878245 -0.06154504 0.4176602 -0.46846917 -0.32653004
0.21841088 0.4683406 0.23829442 0.40866908 -0.38543674 0.07798268 -0.4684674 -0.16401361
-0.23571496 0.46210572 -0.36043534 0.39323506 0.41919678 0.30299738 -0.26728755 0.30986875
-0.3985195 -0.29141128 -0.22830826 -0.2546835 0.5308924 0.15649255 -0.38542518 0.4216822
0.43491635 0.1005249 -0.14585534 -0.37391794 0.2463765 -0.5254899 -0.14792766 -0.4693552
-0.39942625 0.30594262 -0.35001412 -0.37265635 0.27317458 -0.32930994 0.09815978 -0.16928786
-0.5587493 -0.3534267 0.2554977 0.013667559 0.0145189315 -0.1384957 0.25232142 0.25593022
-0.3240539 -0.40771008 -0.00049370335 -0.06726444 -0.25597787 0.14187053 -0.27458486 -0.20122804
-0.444544 0.35359928 -0.23688191 0.41721383 -0.2916486 -0.32256156 -0.09508599 0.2999921
0.14000359 -0.087657586 -0.50301135 0.39554363 -0.10233058 0.40828407 0.4331089 -0.26212618
-0.37734377 0.48274 -0.39405417 0.29264116 0.12760499 -0.45619863 0.44693404 0.22040112
-0.5416052 0.3821506 -0.28167647 -0.17281948 -0.52555394 -0.357157 0.20100991 0.3107697
0.24537252 0.45108318 0.34519124 0.25094166 -0.4497872 -0.35353002 0.38108253 0.4708469
0.5351367 0.23205145 0.4301948 0.39059153 0.31517795 -0.35143068 0.18251555 0.2465531
0.33766603 -0.485985 0.15320998 0.21171296 0.24651 -0.31913504 -0.1985788 0.3682019
-0.39507163 -0.2683274 0.12715913 -0.41151583 -0.395207 0.29494327 0.2918717 -0.5562515
-0.38311014 -0.43863946 0.38883284 -0.2946931 -0.30586132 -0.060635183 -0.5240759 -0.33767185
-0.43078253 -0.15501596 -0.33731094 -0.32158068 -0.316483 -0.19339304 0.116593555 -0.41377127
-0.2139781 0.17074075 -0.34522235 -0.3539585 0.0130801415 0.49147865 0.4178506 0.3509583
0.32060415 0.055696912 0.39307854 -0.24608655 0.3473864 0.3779124 0.26736972 0.37610146
-0.16940428 0.27857465 -0.50741625 0.33093092 0.45390067 -0.28939864 -0.11879725 -0.46045548
-0.079862066 -0.21074902 -0.093385465 0.121921204 -0.20616072 0.3048979 0.2884553 0.10428197
-0.45135078 0.28452122 0.25835162 0.39014748 -0.27042818 0.31956565 0.18768889 -0.42576802
0.3941232 -0.43836653 -0.45930853 -0.06630579 -0.35850453 0.22403534 0.35225278 -0.45742026
-0.24625099 0.19284251 -0.48128235 0.4436069 0.19103886 0.30456823 0.35182637 -0.39233574
0.3294039 -0.4015545 -0.13951579 0.3803879 -0.26606116 -0.11217613 0.46061116 -0.28672838
-0.31985623 0.24395655 -0.45975405 0.39717674 -0.04975425 -0.369751 0.39487815 0.27254385
-0.42874143 0.30455896 -0.06431517 -0.29494175 -0.4399535 -0.41657504 -0.26629466 0.3289505
0.3700055 0.3108356 -0.22352757 0.5030642 -0.52429044 -0.14772719 0.17080355 0.37177384
0.28673953 0.39780697 -0.24841155 0.45063454 0.353109 -0.39606133 -0.34458405 -0.057402775

linear1.weight f4 [128, 256]
00000000: 9b39 863e e5be bfbc 0a57 d13d b699 a93d
00000010: 40eb b2be cfe0 ad3e fe84 a93e 7e52 72bc
00000020: bac2 2abe a08f 0cbe 394c ad3e 32e3 23be
00000030: 727e aa3e 0f8b b5be 7e0c 83be 05b9 c1bd
00000040: e6c4 203c 4c4a b03e c449 1abd c473 8ebe
00000050: b308 b13e 5d5a a13e 001c bf3d 87ff 693d
00000060: 7563 8a3d 5f9d 87be 2c2c a93e 19c4 aabe
00000070: e2a6 573c 15a0 db3d 7c3b 8fbd 73e0 7b3e
00000080: 0109 b6be bdb2 e6bd 1149 963e 4357 b23e
00000090: 1e5d a23e 0adb 86bd 13ba 083d e8db b33e
000000a0: 44b7 ad3e 19cd be3e e65b ab3e 807a b1be
000000b0: c230 623b e033 563d e44e adbe 7f3c 1cbd
000000c0: f637 11be 24e2 acba 7ce4 8dbe ae40 a0be
000000d0: 472f 8ebe 06d3 a93e 1f40 8c3d e4a9 8d3c
000000e0: 710f a83e 9da3 05be f254 8cbe 81a5 93bc
000000f0: aff0 6dbd 5abb 44be 3219 bfbe 218e a73e
00000100: 9567 2e3e abe5 ac3d 7ae9 05be 1214 b6be
00000110: 9ad6 8b3e 9271 5dbd f8de 5dbd bd21 b23e
00000120: cabf a9be aed5 b1be f94e a13e 3257 8ebe
00000130: 248e b73e a709 7fbc 00a1 1abe 161a b83e
00000140: d841 8f3e c91f b4be 2e3a d63d df0a bcbe
00000150: 8e96 983e 20f1 2c3e 767e 673e 31b9 89be
00000160: 3859 a53e 730b 5cbd 9ba7 14be 7a66 b4be
00000170: 4840 a73e 5531 a43d 0ff8 873d 8297 8f3e
00000180: 2d6d b63e 7389 0e3e 9391 9cbe dbcb 97bc
00000190: fe3a bcbe c150 683d 8cdd aebe b2f4 2b3d
000001a0: 6134 a0be 00c9 c1be e2c7 4bbe 82a3 b83e
000001b0: 33e6 96be 3ee2 ab3e 302d af3e 7ad3 80be
000001c0: e6f9 b43e ed61 b13e 1366 f4bd 5c50 aebe
000001d0: f0f0 a23e a30d 0abe b230 aa3e 7b83 a8be
000001e0: 7a0a ff3c 85a0 bcbd 959c b4be a03d b6be
000001f0: 1ba2 2bbe d906 793e a9d1 b53e b54c 45be
00000200: 6f3a 603e f97b babe 5711 bdbe c2ad b5be
00000210: 75e8 b63d aece 63be 59d2 56be 8c20 b6be
00000220: 2575 b63e db15 aabe 8f6f 3abc 4172 9ebe
00000230: 574e ecbd 4a61 c03c baa6 953e 0a7b ba3e
00000240: 3774 bf3e 7157 29bd 8a5c a7be 62c2 993e
00000250: 9f5f 01bd 2277 413e 21c1 a63e 8cba b63e
00000260: 995c b33e b54f 84be ebcf 3abe 860e 9c3d
00000270: e459 ac3e 6c2c b33e 40c4 b9be f865 7d3e
00000280: a709 4c3d 56b2 aebe e259 df3d 868f 563c
00000290: 789e 03be a1a8 bfbe b48b b23e d92a 483c
000002a0: ede9 49be e8ed 61be 18ac 5e3c a39a 3b3e
000002b0: af6f b2be 01ac bd3e dc59 8fbc e4f9 babe
000002c0: f3bd b3be 5a39 b8be 60fe 8e3e bd34 423e
000002d0: e052 56be 5058 5fbe 8f4b ad3e 8a60 b93e
000002e0: f6c7 043e 97f5 adbe 4594 8a3e a20b b4be
000002f0: fd1c b4be 8a0a a83e 6d7c f03d 650a 0fbe
00000300: 1982 a13e 9995 b9be 1628 a53e 8cbb 3d3d
00000310: db50 663e b4f9 b7be c18e b33e cad0 853d
00000320: 7323 2c3e 932e 97bc b882 77be 52aa 3ebe
00000330: dd36 dcbd a57b b4be f0e1 ad3e d150 343d
00000340: c119 87be 1edb d4bd 709f a53e 536e 743d
00000350: 04f2 393e 722a a03e f78a 8b3e 80fc 893e
00000360: 288b 23be 6c1d b9be dc92 a23e b715 313d
00000370: fa1a 32be 2d53 b63e e88c bbbe a2dc 98be
00000380: 53ef 49bd 9069 a1be d792 01be 9904 b7be
00000390: 0bda 153e 3c1f b03e 8353 043e 0025 bcbe
000003a0: 35d4 5f3e 3a04 85bc eb44 a43e 135f 19be
000003b0: 8184 5f3e 3b41 9e3d 49ad 10be e412 53be
000003c0: bd7d c7bd 5ddf 733c 0bce a2be 95b7 86bd
000003d0: 820f c13d 2bdf a83e ea00 493e 217d 333e
000003e0: ce5e b4be 021d bcbe 5797 233e a72e 333e
000003f0: 39b9 b0be 38c2 6f3e c0d1 9abc ea2a a1be
0.26215824 -0.023406455 0.102216795 0.08281271 -0.34945107 0.33960578 0.33109277 -0.0147901755
-0.16675845 -0.13726664 0.33847216 -0.16004637 0.33299595 -0.35457656 -0.25595468 -0.09459118
0.009812569 0.34431684 -0.037668005 -0.27822697 0.3457695 0.31514254 0.093315125 0.057128455
0.06757251 -0.26487252 0.33041513 -0.33352736 0.013162347 0.107238926 -0.069937676 0.2459734
-0.35553744 -0.1126456 0.2935262 0.348322 0.31711668 -0.06584747 0.03338058 0.35128713
0.33928883 0.37265852 0.3346855 -0.34663773 0.0034513925 0.052295566 -0.3384925 -0.03814363
-0.14181504 -0.0013189954 -0.27713382 -0.31299347 -0.27770445 0.3316881 0.06848168 0.017292924
0.3282428 -0.13050695 -0.27408558 -0.018023254 -0.058090862 -0.19212094 -0.3732391 0.32725623
0.17031701 0.08442243 -0.13077345 -0.35562187 0.27312165 -0.054063387 -0.054167718 0.34791365
-0.33154136 -0.34733337 0.31505564 -0.278009 0.35850632 -0.015566266 -0.15100479 0.35957402
0.27979922 -0.351805 0.10460316 -0.36727044 0.29802364 0.16888857 0.22606835 -0.26899102
0.3229463 -0.053721856 -0.14517061 -0.35234433 0.3266623 0.08017222 0.0663911 0.2804528
0.3563017 0.1391962 -0.30579814 -0.018529823 -0.36763757 0.056717638 -0.34153402 0.041981407
-0.31289962 -0.37848663 -0.19900468 0.36062247 -0.29472503 0.33571047 0.34214163 -0.25161344
0.35346907 0.34645024 -0.119335316 -0.34045684 0.31824446 -0.13481764 0.33240277 -0.32912812
0.031132925 -0.09210304 -0.35275713 -0.3559389 -0.16761057 0.24319018 0.3551152 -0.19267543
0.2189729 -0.3642271 -0.36927292 -0.3548413 0.089310564 -0.22246811 -0.20978679 -0.35571706
0.3563625 -0.332198 -0.011379137 -0.30946544 -0.1153838 0.023483891 0.29228765 0.36421996
0.37393352 -0.041343156 -0.3268779 0.30031115 -0.031585332 0.18893102 0.3256922 0.356892
0.35031584 -0.25842062 -0.18243377 0.076199576 0.3366233 0.3499483 -0.3628254 0.24745929
0.049813893 -0.34120435 0.10905816 0.013095742 -0.1285342 -0.3743334 0.3487221 0.012217247
-0.19718142 -0.2206341 0.013590835 0.18320708 -0.34850833 0.3704529 -0.017498903 -0.36518776
-0.35105857 -0.35981256 0.27928448 0.1896543 -0.20930052 -0.21811032 0.3384671 0.36206466
0.12966904 -0.33976433 0.27066246 -0.35165125 -0.35178366 0.3282054 0.11742482 -0.13968809
0.3154457 -0.36246946 0.32257146 0.046321437 0.22491781 -0.35932696 0.3506985 0.06533964
0.16810398 -0.018454826 -0.24170959 -0.1861966 -0.10752652 -0.35250583 0.3396144 0.044022385
-0.26386836 -0.10393356 0.32348204 0.059675526 0.18158728 0.31282383 0.2725446 0.26950455
-0.15971053 -0.3615526 0.3175267 0.0432336 -0.17393103 0.35610333 -0.3663094 -0.2985583
-0.049300503 -0.3152585 -0.12653671 -0.35745695 0.14633958 0.3439883 0.12922482 -0.3674698
0.21858294 -0.016237367 0.3208383 -0.14977674 0.2182789 0.077272855 -0.14128603 -0.20612675
-0.097407795 0.014884797 -0.31797823 -0.06577984 0.09426786 0.32982764 0.19629255 0.17528202
-0.3522858 -0.3674088 0.159757 0.17498265 -0.34516314 0.23413932 -0.018898845 -0.31478053

linear1.bias f4 [128]
00000000: 9f7e 43bc 1576 e7bb b88f 253c 7223 8f3b
00000010: c7ec e4bb 7ea0 2f3c 41ab 17bb 2abb 973c
00000020: 8911 de3c ca1f f73a cc8f 77ba f5bd 98bb
00000030: 79fb d73a b835 cabc bf51 1f3d e01f d1bb
00000040: 946d 2d3c d406 463c ba58 8e3c 6bf4 803c
00000050: e3aa d03c 6b54 f33c 3a82 20bc 77c8 823c
00000060: 326c a0bc 0077 ea3b 85a9 bf3b d85b 393c
00000070: 17f5 a83b 4f09 9cbc befa 0e3c d1a8 783a
00000080: 0054 853c edde 9bbb ef7a 1a3c cbe7 163b
00000090: 86c7 ab3c e18f 183c 7046 5e3b 4c27 d8ba
000000a0: c9f6 9e3a ae0d cabc 8729 ff39 b9db 393c
000000b0: 27fa 49ba 5e02 5b3b c72b edba fe4a b83a
000000c0: 7746 883b 45b6 7c3c f897 adbc 8876 dc3a
000000d0: 0353 99bb 7d6b 57bc d6d9 be3a f4ca 883c
000000e0: 4687 ed3b 54ab 38ba cb08 2e3b 6de0 c03b
000000f0: d7dc 38bc e228 26bb 2517 3f3c cb52 b63c
00000100: 383c 5a3c 08ec bf3b 33ce ad3c 6576 efbb
00000110: 5f73 1a3c d340 703c 76d9 9e3b 8e4b 093c
00000120: bebb 0c3c c625 553b 89a2 3c3b 4e69 9a3c
00000130: b899 7a3c 269e 7ebc 5b3a 833c 0008 1039
00000140: 29c0 e53b 1cf2 1a3b 164e aaba 793a ee3a
00000150: 917b f2bc 7887 4bbc 480d b1ba 7042 36bc
00000160: 0b3c 853b 3d58 97ba 53d6 9b3c 36bd f93b
00000170: c840 0a3c dc7d 623b 6f4b b33c 2cd8 dabc
00000180: 2942 303b fd25 3cbb fb69 053c b4f3 2a3d
00000190: c191 42bc 5cbd 2c3c e234 f43b d86f 17bb
000001a0: 12be 713c 6ac7 1bbc 354a 873c fb56 943b
000001b0: dd72 583c f0ba a63a ae79 d1bb d7f1 503c
000001c0: af98 9fbc a891 d43c aa8e b8bc 3089 88ba
000001d0: 9679 af3c 9d9a 9b3b 918d d23b 0272 af3c
000001e0: ce9f 0ebc c9a5 6dbb 6459 b2bc 7bd9 35bb
000001f0: fdab d439 db9d 5bbc e673 1a3c 0e3b c0bb
-0.011932044 -0.007063637 0.010105066 0.004368239 -0.006986234 0.010719417 -0.0023142847 0.018521864
0.02710797 0.0018854078 -0.00094437297 -0.0046613165 0.0016478143 -0.024683818 0.03889632 -0.0063819736
0.0105852075 0.012086589 0.017376292 0.015741548 0.02547211 0.02970334 -0.009796673 0.01596473
-0.019582842 0.007155299 0.0058490657 0.011313401 0.00515617 -0.019047407 0.008726774 0.0009485605
0.016275406 -0.0047567994 0.009428724 0.0023026343 0.020969164 0.009311647 0.0033916496 -0.0016491204
0.0012127991 -0.024664726 0.0004866833 0.01134389 -0.0007704817 0.003341816 -0.0018094712 0.0014060435
0.0041587907 0.015424316 -0.021190628 0.0016819993 -0.004679085 -0.013148186 0.001456077 0.016698338
0.007248792 -0.0007044573 0.0026555534 0.0058861286 -0.011283121 -0.0025353958 0.011663233 0.022256276
0.013320021 0.0058569945 0.021216488 -0.007307815 0.009426921 0.014663893 0.0048477007 0.00837983
0.008589683 0.0032523735 0.0028783402 0.018849041 0.0152954385 -0.015540635 0.016019037 0.0001373589
0.0070114327 0.0023642844 -0.0012993242 0.0018175385 -0.029599937 -0.012422435 -0.0013507986 -0.011124238
0.0040659956 -0.0011546683 0.019023096 0.0076214327 0.008438297 0.0034559881 0.021886555 -0.026714407
0.0026894903 -0.0028709166 0.0081429435 0.04173632 -0.011875571 0.010543194 0.007452593 -0.0023107436
0.014754789 -0.009507993 0.016514877 0.0045269704 0.013210979 0.0012720507 -0.006392679 0.012752972
-0.019481985 0.02594836 -0.022528965 -0.0010416862 0.021420281 0.004748656 0.0064255674 0.021416668
-0.008705093 -0.0036262146 -0.02177114 -0.0027748037 0.00040563932 -0.013404335 0.009427046 -0.005866415

linear2.weight f4 [113, 128]
00000000: 8ea7 433e a6a2 233e 9ce7 cabe 7411 193e
00000010: ae6e c6bc 7007 0a3d 5bcc 9e3c f3f4 09be
00000020: a8f0 053e ae03 02be cceb 023e c7da 133e
00000030: cbef 313e 3104 efbe 915d 5b3d 173d efbe
00000040: 17ef 073e 8bce 19bf 1fcd 16bf 4cda 16bf
00000050: 7e77 1f3e 8a63 8c3e 4e65 d6be 17d9 353e
00000060: fce0 2bbf 6ee1 e23d 1057 243e 7778 efbc
00000070: 5b1e f83d 53ba 3cbd 3a3d 273e 69c7 163e
00000080: fea5 253e 809d d13d 9f99 e5be 72b0 893d
00000090: d1b6 403e 5dc7 63be f845 10bf 4261 223e
000000a0: ccb6 bfbd 5071 193e 4cc6 93be 5fd5 48be
000000b0: 1db0 8d3d 64ef 11be eaae 953d 228a 233e
000000c0: 1567 2d3e 5870 bbbd a346 1f3e d803 173e
000000d0: 2f26 273e e6de 2b3e 3b9b 723d c196 29bd
000000e0: 2e1c fb3d 0bd1 0ebf 06d6 e6bd 0eea 8b3d
000000f0: f13a 213e 99a8 763e 2d6e 223e 6d3d 063e
00000100: 1823 bebe 1206 adbe 81c9 2abd 1b9f f43d
00000110: f89b bc3d b75e f8be 79c7 c13d 0bd9 02bf
00000120: 97ee 0cbf f32f 4a3e 6df5 bdbe 549f 58be
00000130: 99f4 dbbe 8fce 183e 971c 1e3e 2e72 1c3e
00000140: 091b 093e d5ee 87be 96eb e43d 5fe0 833d
00000150: 29cf d13d cc47 8a3d 5b55 3dbd 9312 183e
00000160: 8c06 a83d a5c9 01be a87a b7be c62c 283e
00000170: 2217 d2be d468 ba3d 0533 69be 2c8d 9a3d
00000180: 9603 93bd 8834 d2bc a8f2 d3be 81a5 1ebf
00000190: 8b7c 8fbe 5956 063e dfd1 8e3d 0906 083e
000001a0: 7015 223d 262e 363e 9360 fc3c 2054 403e
000001b0: 9066 0a3e ec65 0ebf fb23 173e 9a3b 303e
000001c0: b49c 193e 3cba 1c3e 4cdc febe e618 0bbd
000001d0: 9c55 cfbe 68cb 023e 2b35 393e 987a 263e
000001e0: c985 173e 3608 15bf 86f6 fabe f3aa 253e
000001f0: 90a5 343e 2ace a13d 3e59 833d 4802 afbe
00000200: 17b1 903e 169f 233e d59c 2a3e c005 273e
00000210: dbcf c4be 8a2a 06bf 98e4 10bf 3928 f1be
00000220: 83df 133e f0e7 02bf bc02 873d 4970 03be
00000230: 8ea5 23bf 727a 20bf c32b 12be c27f 85be
00000240: 8ce3 313e 2c09 25bb 0cfe 803d 09b1 e3be
00000250: 164c 223e eade 873e 3767 25bf a212 203e
00000260: e0fb 98be 592e 4c3e df1c 0a3e 1721 103e
00000270: 6391 363e a01e 06bf c7ec cd3d a544 1c3e
00000280: 1e7b f43d 8c01 28be 8e6a 463d 4870 d6be
00000290: 1af5 0f3e beae 0b3e 961f 4a3d 559e c2be
000002a0: c8c8 16bf 0c20 213e 07ce ef3d db3e 153e
000002b0: c3e5 2a3e b829 233e a234 2a3e 04ef 003e
000002c0: f582 3bbe 6646 d1be 8ff4 663e 6ae0 a8bd
000002d0: 1191 3abe deae 393e 4c5c febe 5e83 1d3e
000002e0: 5939 253e 6df1 3f3e 5971 b53d 886e 04bf
000002f0: 8db7 3a3e b666 703e dfb0 323e d18a 1fbd
00000300: 3448 24bf 2159 e5bd 2c57 f83d 8131 2cbf
00000310: 04f0 3a3e 91d8 34bd 96d2 cbbe 4d2d b0bd
00000320: 0e63 8e3d 4876 343e a3c6 c6be 94c9 133e
00000330: fda7 c83d 4aa0 1a3e e541 7b3d 0bd7 b7bd
00000340: cfb7 81be a8cf 6ebe a012 2a3e aa53 80be
00000350: b3e6 323d 2d28 0b3e bddf d33d c15f 343e
00000360: 5cef 2d3e 1a84 183e 244a 203e 331a 243e
00000370: 62c7 3ebd 1fd0 cdbe c144 393c 1008 2c3e
00000380: 0d5e 9bbe 0847 133e 6ec9 c1be 40da e9be
00000390: eb6f 0a3e 7053 1f3e f4a5 463e 555b 403e
000003a0: 540b 23be ae5b 843e d09b 06bf 2b4c 85bd
000003b0: d8a5 303e cef6 ebbd 3126 12bd 736f d33d
000003c0: d183 e33d ec0d 253e 3777 8ebb 8a6a 413e
000003d0: 0f0d 7ebe 1883 503d 6963 c73d ee5e 07be
000003e0: 4b7c e23d 0727 babd 6ca2 90be acf1 fc3d
000003f0: 87c2 113e f085 1dbe 65ac 10bf 2159 a8bd
0.19106886 0.15980014 -0.3962983 0.14948064 -0.024222698 0.0336985 0.019384554 -0.13472347
0.13080084 -0.12696716 0.12785262 0.14438926 0.1737663 -0.46682885 0.05355603 -0.46726295
0.132748 -0.60080785 -0.5890674 -0.58926845 0.15572926 0.27419692 -0.41874164 0.17758594
-0.67140174 0.110781536 0.16048837 -0.029232247 0.12115165 -0.04607613 0.1633195 0.14724506
0.16176602 0.10235119 -0.44843766 0.067231074 0.18819739 -0.2224402 -0.56356764 0.15857413
-0.093610376 0.14984632 -0.28862226 -0.19612645 0.069183566 -0.14251477 0.07308753 0.15970662
0.16933854 -0.09152287 0.1555429 0.1474756 0.1632316 0.16784248 0.05923007 -0.041403536
0.12261234 -0.55787724 -0.112712905 0.06831752 0.1574514 0.24087752 0.15862341 0.1310937
-0.3713615 -0.33793694 -0.041696075 0.119444095 0.09209436 -0.48509762 0.094618745 -0.5111243
-0.5505156 0.19744854 -0.37101308 -0.21154529 -0.4296005 0.14922546 0.15440594 0.15277931
0.1338922 -0.26549402 0.11177747 0.0643928 0.10244591 0.067519754 -0.04622398 0.14850836
0.08204374 -0.12674578 -0.35835767 0.1642333 -0.41033274 0.09102026 -0.22773369 0.07546458
-0.07178418 -0.025659814 -0.4139607 -0.6197129 -0.28024706 0.13118877 0.069736235 0.13283552
0.039571226 0.17791042 0.030807769 0.18782091 0.13515687 -0.5562427 0.14759819 0.17210236
0.15001184 0.15305418 -0.49777448 -0.033959292 -0.40495002 0.12772906 0.18086688 0.16257703
0.14797129 -0.58215654 -0.49016207 0.16178493 0.17641282 0.07900651 0.06413506 -0.34181428
0.2826011 0.15978655 0.16661389 0.16310787 -0.3843983 -0.5240866 -0.56598806 -0.47101
0.14440732 -0.5113516 0.065923184 -0.12835802 -0.6392449 -0.62686837 -0.14274506 -0.26074034
0.17371958 -0.0025182469 0.062984556 -0.44471005 0.15849337 0.26537257 -0.6461062 0.15632108
-0.29879665 0.19939555 0.13487576 0.14075123 0.17828898 -0.5239048 0.10054927 0.15260561
0.11937545 -0.1640684 0.048441462 -0.4188254 0.14058343 0.13640878 0.04934653 -0.38011423
-0.5890012 0.15734881 0.117092185 0.14574759 0.1668921 0.15933883 0.1662164 0.12591177
-0.18311675 -0.40874022 0.22554229 -0.082459286 -0.18219401 0.18133113 -0.49679792 0.15382144
0.16135158 0.1874444 0.0885951 -0.5173116 0.18234082 0.23476681 0.17450283 -0.038950745
-0.64172673 -0.111986406 0.12126002 -0.67263037 0.18255621 -0.044151846 -0.39809102 -0.086023904
0.06952487 0.17623246 -0.38823423 0.14432365 0.09797666 0.15100208 0.06134214 -0.08976563
-0.25335547 -0.23321402 0.16608667 -0.2506383 0.043677043 0.13589545 0.10345409 0.17614652
0.1698584 0.14894143 0.15653282 0.16025619 -0.046576865 -0.40197846 0.011307896 0.1679995
-0.30345193 0.14382565 -0.3784899 -0.45674324 0.13519256 0.15559173 0.19399244 0.1878484
-0.1592229 0.25851196 -0.525815 -0.065086685 0.17250764 -0.11521684 -0.035680953 0.103239916
0.11109126 0.16118592 -0.0043477076 0.18888298 -0.24809669 0.05090627 0.09735758 -0.13219807
0.11058863 -0.09089475 -0.28248918 0.12350783 0.14234363 -0.15383124 -0.56513053 -0.08220125

linear2.bias f4 [113]
00000000: ca70 2cbb 7b4d 58bc e6be 81bb a54f d13a
00000010: a6e1 46bb 7063 efba 7c36 a4bb 8db1 b039
00000020: 0ee6 c83a 65c2 d5bb de7d 90bb 9093 a8ba
00000030: 022f 6ebc 9113 d9bb 2c38 60bb 5101 1db9
00000040: f503 d8bb e76b 6bbb 3c6d 5d3a 0687 2c3b
00000050: aa27 a5bb 225f 3bbb a281 c1bb ca05 31bc
00000060: fb6c 1ebb 34ad 45bb cfe0 f7bb f261 8dba
00000070: 132d 47bb f00d f8b9 b8ea 893a 4877 cfbb
00000080: f493 a2bb de3a 36bb 8017 eebb d193 fabb
00000090: 7b2a 33bc 75a6 1ebb 9a6e ffbb f042 1dbb
000000a0: dd5d 8cbb c246 cabb 5053 0fbc 0df8 983a
000000b0: 019f 3abb 2fb6 f7bb 0d39 05bc 9182 113a
000000c0: 2b54 65ba dfea 4ebc 86fc adbb f587 cfba
000000d0: 1356 62bb c6a9 efba 7d3f c0ba 684b 0fbb
000000e0: 7fb9 29bb 3f90 20bb 71ad a4bb fd79 41bb
000000f0: 290a d3b8 c0a9 73bc 9eeb 16bc 3a46 27bc
00000100: d446 a0bb 8db4 88bb c831 f9bb 4576 89bb
00000110: 20a0 ad3a 261a 0d3b b4f0 7abb 94b1 b8bb
00000120: 2c2d c6ba ff64 4fbb 51cc f6bb cc2d 28bc
00000130: 7564 74b9 130a abbb 45e6 4f3b 9c4f 88bb
00000140: 3237 f3bb ca8f 93bb 6682 03bc 622a 1fbb
00000150: d1bc cfbb d939 923a 8121 8fbb 56e1 20bc
00000160: 58b0 02bc 8261 e7bb 87b7 e4bb e342 b5bb
00000170: ef64 e8bb a1f5 27bc 2814 91bb dac6 a2bb
00000180: b418 c3ba 25a5 b1bb 8737 f2bb 96bb cabb
00000190: f254 24bc c2ec 4dbc b024 3bbb 8072 32ba
000001a0: 9a83 9fbb 41fe 10bc e126 34bb 5495 12bb
000001b0: 1913 e3bb e63c 87bb e200 7dbb b44f f0ba
000001c0: cb38 62bc
-0.0026312345 -0.0132020665 -0.0039595244 0.001596917 -0.00303469 -0.0018263888 -0.005011378 0.00033701622
0.0015327351 -0.006523418 -0.004409536 -0.001286136 -0.014537575 -0.006624647 -0.0034213169 -0.00014973177
-0.0065922686 -0.003592247 0.0008446758 0.0026325597 -0.0050401287 -0.002859064 -0.005905346 -0.010804603
-0.0024173844 -0.0030163052 -0.007564641 -0.0010786636 -0.0030391857 -0.0004731263 0.0010522222 -0.006331358
-0.004961485 -0.0027806084 -0.007265985 -0.0076470156 -0.010935421 -0.0024208103 -0.007795167 -0.0023996197
-0.0042836503 -0.006172986 -0.008747891 0.0011670605 -0.0028476121 -0.00755956 -0.008131278 0.0005550767
-0.0008748199 -0.01262924 -0.005309644 -0.0015833365 -0.0034536168 -0.0018284849 -0.0014667358 -0.0021865014
-0.0025897918 -0.002450004 -0.0050255586 -0.0029522174 -0.000100631565 -0.0148720145 -0.009211449 -0.010209614
-0.004891256 -0.004171914 -0.0076048113 -0.004195007 0.0013246574 0.0021530478 -0.0038290443 -0.0056364033
-0.0015119663 -0.0031645892 -0.0075316806 -0.010264825 -0.00023307076 -0.005219707 0.0031722945 -0.004159881
-0.0074223513 -0.004503225 -0.008026695 -0.0024286737 -0.0063396473 0.0011156156 -0.0043680076 -0.009819349
-0.007976614 -0.0070611844 -0.006979886 -0.005531655 -0.0070921103 -0.010251434 -0.0044274516 -0.0049675526
-0.0014884681 -0.005421298 -0.0073918733 -0.006186913 -0.010030018 -0.0125686545 -0.0028555803 -0.0006807223
-0.004867983 -0.008849681 -0.0027488994 -0.0022366839 -0.006929767 -0.0041271327 -0.0038605263 -0.00183343
-0.013807486
