models/snn_final.pth (torch, 252770 bytes, 5 tensors)

embed.weight f4 [113, 128]
000000 62 da 37 39 85 91 8d bd 5f 2d 3c bd ac f2 d5 3a
       0.00017533594 -0.06912521 -0.045941707 0.0016322932
000010 91 85 93 bc 4f d8 d8 3d 4f 16 09 bd c9 18 5f 3d
       -0.018008025 0.105881326 -0.03346854 0.054466996
000020 14 9f 09 3a 38 15 26 bd 5e fd 7c 3a 0d 57 98 b8
       0.000524984 -0.04054758 0.0009650792 -7.264139e-05
000030 a8 be 60 3b d1 ac 2b bc 6e 0b 0d be fd a1 28 3c
       0.0034293327 -0.010478214 -0.13773891 0.010292527
000040 e9 50 55 bd ae 3a c6 3c 79 0d b8 3b ef 25 e7 bb
       -0.052079115 0.024197903 0.0056168404 -0.0070540826
000050 7e 39 68 3c c0 8f dd 3d 4e 20 29 bd b6 1e ea 3a
       0.014173863 0.10818434 -0.041290574 0.0017861936
000060 da 24 8f 3d dc 87 9a 3d 6e d7 92 bc 6c a7 8b bb
       0.06989451 0.07545444 -0.01792499 -0.0042619016
000070 5c ae f1 bd 36 49 d6 3d e5 d0 f4 bb 2e cf 8c bc
       -0.118008345 0.10463183 -0.007471191 -0.017188635
000080 e0 76 06 bd 0d 8f 1b be 9e f4 ee bc 8e 53 cd 3b
       -0.03282821 -0.15191288 -0.029169377 0.006266064
000090 6e a7 7f 3c 5e 93 e8 3c 73 8b b1 bc f8 17 03 3c
       0.015603883 0.028390583 -0.02167294 0.00800132
0000a0 f9 32 84 3d 07 54 e1 b9 70 5d 4b 3d 4b 98 09 bd
       0.06455035 -0.0004297795 0.049649656 -0.033592504
0000b0 fe 6c 15 3d 49 83 a0 3b f3 36 82 bc 66 6a 16 3c
       0.036480896 0.004898463 -0.015895342 0.009180641
0000c0 d8 da 1f be ba 6f 71 3c 16 43 22 bd 4b d8 c5 bc
       -0.15610826 0.01473611 -0.03961476 -0.024150988
0000d0 64 0e 0c be 12 93 89 bd 2b f3 6f 3c f7 1e 54 bb
       -0.13677365 -0.067175046 0.014645378 -0.003236709
0000e0 37 b9 2b 3d ef 64 87 bc 9f ed bd 3d 22 c6 ef 3c
       0.04192468 -0.016527621 0.09273838 0.029269282
0000f0 8e 7e cb bc 3a 35 73 bb c8 51 9f 3c bc 88 83 3d
       -0.02484062 -0.0037110583 0.019448176 0.064225644
000100 f5 a7 d5 3b 58 52 39 39 3f 04 18 3d e3 a0 5c 3d
       0.006520266 0.0001767365 0.037113424 0.05386437
000110 ab 4b a5 3d 72 7d c4 3a b5 2c 56 3c 48 2c c7 3d
       0.08071073 0.0014990999 0.013072182 0.09725243
000120 01 96 42 3d 61 f5 49 bd 76 03 fc 3b f1 e6 13 be
       0.047506336 -0.049306277 0.0076908423 -0.14443566
000130 b7 e4 31 3c 07 f7 8d bd 34 41 aa 3c c6 8d 8d bc
       0.0108577525 -0.06931882 0.020783044 -0.017279517
000140 6b 8b c7 3d 18 d4 e8 bb 35 c8 98 3d db b4 7f bc
       0.09743389 -0.0071053617 0.074600615 -0.015607084
000150 86 de f4 3c 61 08 26 bd 82 80 69 3c 9b f7 2c 3d
       0.029891264 -0.040535334 0.01425183 0.042228322
000160 ef 32 81 3c 6b 4f 48 bc a6 54 09 3d 05 20 08 bd
       0.015771357 -0.012225966 0.033527993 -0.03323366
000170 92 2b b8 bc d4 c8 82 3c ed 4b 5d bd db b5 51 3c
       -0.022481713 0.015964903 -0.054027487 0.012799705
000180 a3 71 21 3c 5f 19 db 3c 9c 85 19 3e 16 f7 a3 bc
       0.009853753 0.026745496 0.14992374 -0.02001528
000190 2b 98 be 3d 19 5a 53 3c a4 6b 8d 3d a8 a6 bb 3d
       0.093063675 0.012899899 0.069052964 0.091626465
0001a0 e0 a1 17 3d e8 79 8a bc fc 9a d3 bc fa 28 2f bd
       0.03701961 -0.016903833 -0.025830738 -0.042763688
0001b0 9d 00 16 bd ab 56 0a 3d e8 b2 8e 3c 50 be 7b bd
       -0.03662168 0.03377406 0.017419294 -0.061460793
0001c0 95 0b a9 bd 9c ed 9a bc 12 ee 43 bd d0 c5 cd 3d
       -0.08254162 -0.01891213 -0.047834463 0.10047495
0001d0 56 71 c0 3c 9d dd 62 3d f9 a3 39 be 5e 09 58 3e
       0.023491543 0.05538713 -0.18128957 0.21097323
0001e0 4a 65 5e 3d 8c ee 19 bd 24 6d 01 bc 16 67 94 3c
       0.054295816 -0.03758101 -0.007899556 0.018115561
0001f0 30 cb 7b 3b c9 ea 58 3d ac 48 a5 bc 2b c0 78 bd
       0.003842067 0.052958284 -0.020176254 -0.06073014
000200 be c3 42 3c 1d 39 0f bd 24 78 4e 3a 4c c7 88 3b
       0.011887489 -0.034966577 0.0007876179 0.0041741487
000210 6f 29 17 bd bf 43 55 bd 83 50 ba bc 40 57 f0 bc
       -0.03690475 -0.05206656 -0.02274347 -0.029338479
000220 69 c2 08 3e 34 9a 88 bc 9f fa 86 bd 84 d1 a4 3c
       0.13355412 -0.016675092 -0.06590771 0.020119436
000230 f5 85 c5 3c 15 5f 82 3d 7b 05 94 bd d9 b3 a4 3d
       0.024111727 0.06365792 -0.07227608 0.08042116
000240 40 77 51 bd db 21 a6 bd 44 c5 fb 3d c5 92 21 bd
       -0.051139116 -0.08111926 0.12293485 -0.03944661
000250 ab 79 1a bc 91 00 3b 3d b9 49 47 bb 81 b4 80 bb
       -0.009428422 0.045654837 -0.0030408932 -0.0039277677
000260 f8 d6 60 bc 15 64 91 bc 72 49 a5 bd 66 62 9b bc
       -0.013723128 -0.017747918 -0.08070649 -0.018967818
000270 70 b3 70 3d fe 0f 87 bc 5c ce c6 bc 51 ef 4f 3c
       0.058764875 -0.016487118 -0.024268322 0.012691335
000280 fd f2 02 bd 90 37 9c bb 48 7e 52 bc 36 8a 6f bc
       -0.031970013 -0.0047673658 -0.012847491 -0.014620354
000290 91 9d 84 3d 03 c5 f7 bc f0 4b 93 bc e5 bb 3f bd
       0.06475366 -0.03024531 -0.017980546 -0.04681005
0002a0 f9 eb db bc 50 c3 4d 3d 8d 09 8c bd 49 e2 a5 3d
       -0.026845919 0.050235093 -0.06837759 0.08099801
0002b0 af 3f 3f 3d 2d 9c c6 3b 7a 44 8c bc 5a e7 02 3d
       0.046691593 0.006061098 -0.017122496 0.031958915
0002c0 c4 e4 92 bb dc 8d fb 3b 2b a3 ac bc 3a 5c 75 bc
       -0.0044828374 0.007676823 -0.021073898 -0.014975602
0002d0 8c 4e 52 bc 92 89 21 bd 0d a9 5d 3b 5c 74 f7 bd
       -0.01283611 -0.039437838 0.0033822686 -0.12082741
0002e0 e0 7f 0c bd c0 b4 36 bd 1d d5 62 bd f6 19 f5 3c
       -0.03430164 -0.04460597 -0.055379022 0.029919606
0002f0 af 9f 08 bd 82 29 93 ba 49 ae f4 3c eb 41 b8 bc
       -0.03335541 -0.001122758 0.029868262 -0.02249237
000300 99 41 cb 3b 14 c9 21 3d 3b 99 80 bd dc 9a 00 3d
       0.006202888 0.039498404 -0.062792264 0.031397685
000310 c0 c0 e7 3b 2a 00 bc bc c1 24 a6 3c 0f ee c3 b9
       0.007072538 -0.022949297 0.020281198 -0.00037370666
000320 21 5d 9d bc be fb 27 bd 4b cd 24 bd e8 1a 8c bc
       -0.019209446 -0.041011564 -0.040234845 -0.017102674
000330 65 1e 7b 3d ba 69 07 bd 6f f1 26 ba cb 33 14 3d
       0.061308283 -0.033059813 -0.0006368374 0.036182206
000340 ba 5b 28 3d c2 0c 8b 3d 84 b3 92 bc c2 0d 44 bd
       0.041103102 0.06789543 -0.017907865 -0.047864683
000350 c3 d4 bd 3d 4a 1c 0a 3c 17 a2 b5 bc 79 98 27 3d
       0.09269097 0.008429596 -0.022172017 0.040916894
000360 d6 0c 9d 3d 7b 79 8b 3c 9f f8 bb bc 00 a9 cf 3d
       0.07668464 0.0170257 -0.0229457 0.10139656
000370 c7 3b 18 3d 7a 57 8d bd 39 37 1a 3d 56 82 86 bb
       0.037166383 -0.069014505 0.03765032 -0.0041048927
000380 e1 87 40 3c 28 ce 8e 3c 48 3c 0b bd 92 32 12 3d
       0.011751146 0.017432287 -0.033993036 0.03569276
000390 4d 97 86 3d a1 d6 8c 3c 49 63 bd 3b d4 ae c9 3c
       0.06571827 0.017192187 0.005779658 0.024619497
0003a0 54 66 82 3d 05 d2 f9 bc ca 23 2d bd 5d 26 ee bc
       0.06367174 -0.030495653 -0.04227046 -0.029071027
0003b0 d3 2a 07 be 66 37 22 3c 4b de f7 bc a8 0b 0b 3e
       -0.1319993 0.009900903 -0.030257365 0.13578665
0003c0 08 54 8c 3d fe 6b f5 bc df b7 0e bc d5 02 84 bc
       0.06851965 -0.029958721 -0.0087108305 -0.016114632
0003d0 03 20 74 bd 2e 22 37 3d 40 eb 00 3d a4 fb 21 bb
       -0.05960084 0.04471033 0.031474352 -0.002471664
0003e0 5b d1 a7 bd 3e 3a 81 3c c6 bc 8b bd 50 f4 3a bd
       -0.08194228 0.015774842 -0.06823115 -0.04564315
0003f0 e6 54 d8 3c 34 23 67 3c 53 d9 67 3c 96 70 5f bb
       0.02640767 0.014107514 0.014150935 -0.0034094206

fc1.weight f4 [128, 256]
000000 63 2b 8c 3c 15 e4 90 3c 8a d6 38 bc a7 6a 1c bd
       0.017110532 0.017686883 -0.011281619 -0.03818765
000010 c3 a7 ea bc 9a 0d 46 3c 52 01 c8 bc 06 2e fd bb
       -0.028644448 0.012088204 -0.024414692 -0.0077264337
000020 4f 29 f7 bc 90 c5 9f bc 75 5d a4 3d 79 08 2e bd
       -0.030171065 -0.019503385 0.08025638 -0.04248855
000030 6d 65 95 3d ed 09 12 bb 05 b2 6f bc f7 37 03 bd
       0.07294736 -0.0022283748 -0.0146298455 -0.032035794
000040 ba 67 88 3d 52 cd fc 3c f8 e5 1c bd ba 76 8b 3c
       0.06660409 0.030859623 -0.038305253 0.017024387
000050 56 f9 f5 3c e7 78 97 3d 4b 34 98 ba 98 c0 4d 3c
       0.03002612 0.07396107 -0.0011612264 0.012558125
000060 8b ae c2 bc 47 f3 14 bb a9 16 9f 3c e2 45 59 3c
       -0.02376487 -0.0022728012 0.019419985 0.01326129
000070 50 df c2 3c 4d 1b 98 3a dc 28 89 ba 67 e0 18 bc
       0.023788124 0.0011604816 -0.0010464448 -0.009330845
000080 28 51 88 3d 95 10 8c 3d df 7c 9c bc 4b 99 d1 bc
       0.06656104 0.068391 -0.019102512 -0.025585791
000090 fe 70 98 3c 4f 95 ac 3c a7 b5 1a bd 90 09 81 3c
       0.018608566 0.02106729 -0.037770893 0.01575163
0000a0 09 a4 08 bc 74 89 ae bd 89 9e a6 bc 9c 35 41 3d
       -0.00833989 -0.08522311 -0.020339267 0.047170267
0000b0 97 6b 88 bd f3 c0 94 bd 54 96 5b bb 0d d8 8d bc
       -0.06661146 -0.07263365 -0.003350635 -0.017314935
0000c0 24 e7 d5 3c 28 c3 e4 bb 30 d8 a7 3c ca c1 6e 3c
       0.026111193 -0.0069812723 0.020488828 0.01457257
0000d0 9f 55 76 3d a2 9c e4 bc 1a 57 78 bc dd d3 45 bb
       0.06014025 -0.02790672 -0.015157485 -0.0030186095
0000e0 a9 84 79 3d c3 2e a2 3c 12 fe 90 3c 18 00 81 bc
       0.06091753 0.019797688 0.017699275 -0.015747115
0000f0 ab bf 10 bd f8 7c ad bc fa d1 bb 3c 99 6a e3 3c
       -0.03533904 -0.021177754 0.022927273 0.02776079
000100 70 89 1b 3d d7 57 bb 3c d6 ff 85 3c 74 08 66 3d
       0.037972867 0.022869034 0.016357344 0.056160405
000110 04 49 c3 3c a9 cd 7d bd e9 e9 ab bb 5e be 0a bc
       0.023838528 -0.06196371 -0.00524639 -0.008468239
000120 3f 1b 8b bc 92 c1 b2 3c a8 88 56 3c dc 16 64 bc
       -0.016980765 0.021820817 0.013094105 -0.013921466
000130 fb 5f 6a 3c 22 b4 ed bc f7 8d a4 bc c0 4e 0c 3c
       0.01430511 -0.029016558 -0.020087225 0.008563697
000140 fb c7 e1 bb 65 8b 06 3c 83 ba 38 3d e2 4f e2 3c
       -0.0068902946 0.008211945 0.045099746 0.027625982
000150 19 20 d5 3c 2f 0d 83 bc 22 b7 18 bd 86 b3 84 3c
       0.026016282 -0.015997497 -0.037284024 0.016198885
000160 88 e9 a6 bd d4 45 fc bc 22 c8 95 bc 2e 4d a3 bd
       -0.08150011 -0.030795015 -0.018283907 -0.07973705
000170 7c 34 0f 3c 0d e7 ab 3c b4 e5 80 3d 08 15 11 bd
       0.008740541 0.020984197 0.062938124 -0.035420448
000180 78 66 35 bd 19 b9 08 bc 84 6a 8c 3b 67 a3 e0 3c
       -0.044287175 -0.008344912 0.0042851586 0.027421666
000190 97 66 83 bc 96 4c 2d bd 9a c0 32 bc 3d a0 12 3b
       -0.01604013 -0.042309366 -0.010910178 0.0022373341
0001a0 5d 29 24 3d 67 bd 59 bc 53 ac c4 bd 6e b7 01 bd
       0.04007851 -0.013289786 -0.09603181 -0.031669073
0001b0 97 24 74 3d 34 87 90 3c 62 f4 c4 bc 31 ee 57 bd
       0.059605207 0.017642595 -0.024042312 -0.05271739
0001c0 31 5c 50 bd 63 27 5f bc 41 c1 e6 bc 9e 51 27 bb
       -0.05086917 -0.01362023 -0.028168323 -0.0025530825
0001d0 83 3d 11 3d 61 5c 6d bc 2c 2b e9 3b 33 35 8d bc
       0.035459053 -0.014487357 0.007115742 -0.017237281
0001e0 7a 6b 96 3c c5 3f 99 3c 8f 07 12 3d c9 b0 ee bc
       0.018361796 0.018707165 0.03565174 -0.029137032
0001f0 5e be 03 bd 18 2d 66 3b b5 69 6a bc 3e 8d b2 3d
       -0.03216397 0.0035122093 -0.014307429 0.08718346
000200 fa 84 a5 3b b9 21 bf 3c 02 1a 4b 3d bf 71 95 bb
       0.0050512524 0.02333151 0.04958535 -0.0045606787
000210 c9 e6 fd 38 45 e5 a7 3c 65 20 27 3b f3 f4 86 3c
       0.00012106967 0.020495066 0.0025501486 0.016474223
000220 c0 c0 2d 3d 5a bb 22 3d bf 47 7e 3d 46 2a 1e 3d
       0.04242015 0.039729454 0.06208014 0.038614534
000230 e2 b6 41 3d a0 b1 1e bc 7b d6 29 bd 26 b0 83 bc
       0.04729355 -0.009685904 -0.04146431 -0.016075205
000240 d0 c4 db 3c bd 2d 70 3c 30 39 07 bd 37 17 ff bb
       0.026827246 0.014659342 -0.033013523 -0.00778475
000250 fa 7a b0 3c a8 2b be 3d 8c 79 04 bd f3 f5 ff 3b
       0.021543015 0.092856705 -0.03234248 0.007811302
000260 08 1a 0f 3d 61 45 3b 3c ed 5e e9 bc 9e e6 0e 3d
       0.034936935 0.011430115 -0.028487647 0.034887902
000270 f6 f2 95 bd f4 c9 a2 3c 43 b0 1f 3c 0b f9 f9 bc
       -0.07321732 0.01987169 0.009746614 -0.03051426
000280 df 59 b7 3d 42 0d 25 3d 7a 4f 28 3d 28 fd b1 bd
       0.089526884 0.040295847 0.04109142 -0.08690864
000290 65 f4 96 3c 28 b7 81 3c 56 30 21 3c c8 6a f6 3c
       0.018427083 0.015834406 0.009838184 0.030080214
0002a0 70 35 a6 ba 4d 77 38 bd cc 2c ab bb 32 12 1d bc
       -0.001268072 -0.04503565 -0.005223846 -0.009586858
0002b0 73 d0 37 bd e0 78 45 bd 66 41 35 bb 18 88 0a 3d
       -0.044876527 -0.04821098 -0.0027657389 0.033821195
0002c0 85 bb 64 3c 27 9b 80 bd 68 76 08 3d 9c 27 a9 ba
       0.013960724 -0.06279593 0.033316046 -0.0012905481
0002d0 80 cf 87 bc 82 65 58 bc c0 f4 45 3c 18 e8 45 3c
       -0.016578436 -0.013207795 0.012082279 0.012079261
0002e0 ae bc 25 3d 26 a4 c5 3c 9f 12 90 3c b6 bb ad 3b
       0.040463142 0.024126124 0.017587004 0.005301918
0002f0 c0 38 43 bd ec 93 b7 bd 0d a0 3e bc 0a 61 23 3d
       -0.047661543 -0.08963761 -0.011634839 0.039887466
000300 cb aa fb 3c ca d9 06 3d 53 e2 80 3c e6 a9 50 3d
       0.030721089 0.032922544 0.01573292 0.050943278
000310 21 e4 87 ba 26 e8 1a bd 23 2e 83 bc 81 3c f5 bc
       -0.001036767 -0.03781905 -0.01601321 -0.029936077
000320 86 4d a0 bc 45 4d a5 bc ab 5b 69 bc fe 8c 50 bc
       -0.019568216 -0.020178447 -0.014243047 -0.012728928
000330 2a 4f 6c bb 5a 54 af bc 17 52 2e 3b e6 66 3c bd
       -0.0036057928 -0.021402527 0.0026599222 -0.04599657
000340 20 7d 18 3d 4c b8 e9 3b 17 06 e2 3d be cb 46 3d
       0.037228703 0.0071325656 0.11036318 0.048534147
000350 f9 88 89 bc cf 32 2a bb e1 f5 82 bd f5 9a 30 bc
       -0.016788946 -0.0025970226 -0.06394554 -0.010779132
000360 84 58 b4 bd 2a e1 9a bd e0 03 20 bc 34 e7 6a bc
       -0.088059455 -0.07562478 -0.009766549 -0.01433735
000370 f6 bb 85 bc 5f 0d d1 3a fe 8b f3 bc 9b fe fa bc
       -0.016324978 0.001594942 -0.02972984 -0.030638983
000380 24 52 34 bd 47 71 06 3d d4 fc ce 3c 0f af f3 bc
       -0.044023648 0.032822873 0.025267042 -0.02974656
000390 02 21 d0 bc ca 3d 71 bd 43 7f 0d bd a9 44 aa bc
       -0.025406364 -0.058896817 -0.034545194 -0.020784693
0003a0 1b 93 9e 3d 73 7c 35 ba d6 df 6f bd 47 42 81 bc
       0.07742902 -0.00069231464 -0.058563076 -0.015778674
0003b0 54 1b 2e 3d 90 3d f7 3c ba b3 f9 bb 49 7b 63 bd
       0.04250653 0.030180722 -0.007620302 -0.055537496
0003c0 86 fa 36 bd 06 7c a6 3c 4d ea da ba b6 5e 3d bb
       -0.04467251 0.02032281 -0.0016701907 -0.0028895563
0003d0 b6 82 ae 3d 98 ff ee 3a 6a be 28 3c 3c 76 6e 3c
       0.08521025 0.0018234132 0.0102993045 0.014554556
0003e0 c8 d5 94 3b 2e 8b 86 3a 62 6b 07 3d f0 1b ae 3c
       0.0045420863 0.0010264867 0.033061393 0.021253556
0003f0 bc e6 f3 bc 01 c2 85 3c 55 87 03 3d ec 36 f5 3c
       -0.029773109 0.01632786 0.032111485 0.029933415

fc1.bias f4 [128]
000000 47 95 e3 b9 43 f4 53 bf 95 34 4a 3b 09 84 01 bf
       -0.00043408034 -0.8279459 0.0030854095 -0.50592095
000010 43 f4 53 bf 90 77 dc ba dc 7e af bb 40 f4 53 bf
       -0.8279459 -0.00168203 -0.005355699 -0.8279457
000020 c6 ab 9e ba a2 57 17 3c c9 48 fb bb ef b7 fa 38
       -0.0012105636 0.009237202 -0.007668589 0.00011955189
000030 63 f8 8a 3b 7e af bc 39 33 57 d6 ba f0 4f a5 3a
       0.004241036 0.00035988906 -0.0016352892 0.0012612324
000040 bd d4 7e 3b 71 0c d2 ba cc f8 7a 3a c1 05 8d ba
       0.0038884126 -0.0016025436 0.0009573817 -0.0010759161
000050 8c 26 09 3b 50 ae 72 ba 43 f4 53 bf 23 61 e1 3a
       0.0020927517 -0.0009257542 -0.8279459 0.0017195087
000060 43 f4 53 bf 46 97 af bb ab c1 89 bb 59 28 8c bb
       -0.8279459 -0.0053586094 -0.004203995 -0.0042772708
000070 a3 3e 10 bc 0f 3b 30 3c 38 22 c8 39 43 f4 53 bf
       -0.008803996 0.010756268 0.00038172468 -0.8279459
000080 57 91 a2 3a 02 51 ca 3b bf 83 1f bc f6 44 93 3b
       0.0012402934 0.0061742077 -0.009736001 0.004494305
000090 f2 79 ff 3a 6b 8f a9 3b fa 1d 86 3b 0a 3d 6c ba
       0.0019491299 0.0051745675 0.004092929 -0.0009011781
0000a0 f8 eb 53 bf 2a 01 40 3a 15 df 8d bb 70 86 c1 3a
       -0.82781935 0.0007324392 -0.004329572 0.0014764797
0000b0 91 67 55 ba a3 e0 2d 3b 43 f4 53 bf c9 da 3f bb
       -0.0008140738 0.00265316 -0.8279459 -0.0029274693
0000c0 66 03 1a ba c3 e3 a0 bb 4c 76 be ba 76 ce 43 ba
       -0.000587514 -0.004909964 -0.0014531105 -0.0007469425
0000d0 22 1b ed 3a 70 67 04 3c ed 20 b3 3a 2d 8b 51 3a
       0.0018089751 0.008081302 0.0013666429 0.0007993456
0000e0 ab 23 89 bb da 04 51 3a 12 ca af ba 66 cd e9 bb
       -0.00418516 0.000797344 -0.0013411662 -0.007135081
0000f0 b0 38 0a bc 60 e9 53 bf 43 f4 53 bf 2a 88 bb 38
       -0.008436367 -0.82777977 -0.8279459 8.9422174e-05
000100 43 f4 53 bf 43 f4 53 bf a4 a9 61 3b 5b 1f 87 bb
       -0.8279459 -0.8279459 0.003443339 -0.004123611
000110 1c 00 d2 b8 9b 5f 90 bb aa 8d 09 bb f8 bc d2 bb
       -0.00010013601 -0.0044059283 -0.002098898 -0.0064312182
000120 96 03 59 3c 7b d5 a3 3b 1a d9 a7 3a 71 82 d0 3a
       0.013245484 0.004999814 0.001280579 0.0015908015
000130 53 fd d4 3a 18 2d 51 3b c9 e0 d7 38 bf 8d c8 3b
       0.0016249813 0.0031917747 0.000102938684 0.006120413
000140 54 5a ca 3a d8 fc de 3b a5 28 f1 3a 29 1d cd 39
       0.0015438297 0.0068050437 0.0018398954 0.00039122373
000150 d0 59 02 bf 0c ab 9c 3a 1b 32 80 3b 85 23 8a 3a
       -0.50918293 0.0011952831 0.003912223 0.001053915
000160 bc 40 3c 3b 30 76 21 bb f3 8e 0d bf c2 fc 12 bb
       0.0028725108 -0.0024637096 -0.5529625 -0.0022428487
000170 e0 0e c0 bb e1 e8 53 bf f8 c1 f9 3a ec 09 8b ba
       -0.0058611482 -0.8277722 0.0019055 -0.0010607815
000180 30 91 a4 3b 84 c7 d5 39 b1 06 9a 3a e5 c2 d5 ba
       0.0050221905 0.00040775177 0.0011751262 -0.0016308693
000190 3f 49 fc 3b 40 f4 53 bf 11 97 44 bb 6c ec df 39
       0.0076991613 -0.8279457 -0.002999727 0.00042710023
0001a0 43 f4 53 bf ad 6c 37 ba d2 2c e0 b9 8c 9b 79 bb
       -0.8279459 -0.000699709 -0.00042758003 -0.0038087098
0001b0 28 ea 21 ba 6d a9 ad bb 08 fb 80 b9 96 89 ca ba
       -0.00061765546 -0.005299738 -0.00024601095 -0.0015452381
0001c0 48 ea 1f ba a2 c7 c8 bb de e7 53 bf 43 f4 53 bf
       -0.0006100279 -0.0061273137 -0.82775676 -0.8279459
0001d0 bc 74 b3 ba 5e 60 ab 39 6b 34 16 b9 e0 20 0f ba
       -0.0013691406 0.0003268746 -0.00014324642 -0.0005459916
0001e0 76 a2 5c 3a 93 2b 10 ba 22 70 67 3b ff 32 a3 3b
       0.00084165426 -0.0005499657 0.003531464 0.0049804444
0001f0 2b 0d ea 3b 0c 0c 4f 3a 05 7b 93 3a ea 05 9a bb
       0.007142683 0.00078982185 0.0011251873 -0.004700412

fc2.weight f4 [113, 128]
000000 03 b2 0a bf b4 cb 11 0b d3 98 7b be 8e 86 58 35
       -0.54177874 2.8079233e-32 -0.24570017 8.0662073e-07
000010 17 de 80 8c 02 06 20 bd 42 0e c6 be 69 bb 03 9b
       -1.9855188e-31 -0.03906823 -0.38682753 -1.0896622e-22
000020 de af 5b 3d 85 e2 9d be d0 2a 43 3d a0 04 4d be
       0.053634517 -0.30836883 0.04764825 -0.20021296
000030 43 2b c3 3d 43 36 61 3d 85 3d 47 3d a6 4b bf bc
       0.09529736 0.05498339 0.048642654 -0.023351502
000040 55 eb 88 be 97 51 8a be 0b 09 68 bd a3 43 f5 bd
       -0.26742044 -0.27015373 -0.05664925 -0.11975791
000050 17 79 4a 3c 90 a6 4f 3d e0 32 74 8e b4 56 6b bb
       0.012357972 0.050695956 -3.0099817e-30 -0.0035909833
000060 63 42 23 8e f1 6c d7 3c 40 21 14 3e 8c 06 b4 bc
       -2.0123265e-30 0.026297064 0.14465809 -0.021975778
000070 1f ef 83 3d 65 89 ba 3c 5f a9 5e bd b4 b6 99 0d
       0.06442093 0.022770593 -0.054360744 9.473337e-31
000080 c9 e8 8a 3d 2c 07 35 bd 67 66 07 3d 02 cd 38 3c
       0.067826815 -0.044196293 0.033056643 0.011279346
000090 e5 fa 0f bd 43 52 15 be 51 11 dc bd 5f 07 a3 3d
       -0.03515138 -0.14582162 -0.1074549 0.0796039
0000a0 05 01 14 a8 27 da 7c 3b 56 4b 1b 3d 03 7c 9b 3d
       -8.2158715e-15 0.0038582177 0.037913643 0.07592013
0000b0 89 e7 3b 3c 0b 1f c0 3d ec 4d d0 8d 0f 6c 06 3e
       0.0114687765 0.09380921 -1.2837749e-30 0.13127159
0000c0 94 7c ae be 25 9e 5f be cc ae 15 bf ff ee 02 3d
       -0.3407942 -0.21837671 -0.58469844 0.031966206
0000d0 36 3b b0 3d c2 09 1c 3d 03 d6 14 3e 27 44 86 bc
       0.086050436 0.038095243 0.14534764 -0.01638992
0000e0 76 ac 65 3d 7a ef 7f bd 81 d8 48 3d 7c 20 e2 bc
       0.056072675 -0.062484242 0.0490346 -0.02760338
0000f0 19 5b 30 ba bd 8f 2d a7 35 17 ed 0c f7 38 d1 3d
       -0.0006727442 -2.4086494e-15 3.65296e-31 0.10215943
000100 ef 56 fb 8c 8d d5 4d 0c c6 bd ad be fa 16 61 3d
       -3.8724995e-31 1.5856889e-31 -0.33933848 0.054953553
000110 6f ee 03 be 5f d0 86 3d f4 cf 85 3d 97 fa d2 bd
       -0.12883924 0.065827124 0.065338045 -0.103017025
000120 9a 7e f0 bd 60 a7 96 bd a6 ca 00 be b0 1c 3a be
       -0.11742897 -0.07356143 -0.12577304 -0.18175006
000130 c9 41 c5 3d c6 76 a1 be 19 c2 78 3d d7 c0 10 be
       0.09631688 -0.3153593 0.06073198 -0.14136063
000140 73 af 12 3d 5f 78 01 3e fe cb da be 33 74 98 3d
       0.035811853 0.12643574 -0.4273376 0.07444038
000150 14 1e f6 35 32 25 c8 be 84 af 37 bd 15 d9 99 be
       1.8337182e-06 -0.39090878 -0.04484512 -0.30048433
000160 68 51 0c be f2 3b f3 3c 8b 5b 65 31 06 eb 57 3d
       -0.13702929 0.02969167 3.3375922e-09 0.05271437
000170 d0 96 aa bc 02 9f 5d a5 07 04 57 bd a3 ee f9 bb
       -0.020823866 -1.9222568e-16 -0.052494075 -0.0076273247
000180 e3 1f 52 3d 68 f1 bf be 6d 8e fe 3c f5 12 50 be
       0.05129994 -0.37488866 0.031073773 -0.20319732
000190 01 ba b7 3d bf e2 cb 98 5f 3b a2 be 85 ac 51 3d
       0.08971024 -5.2703225e-24 -0.31685922 0.051189918
0001a0 b8 6f f9 8a ca 24 d1 3c 5a 07 94 be 1e 73 31 bc
       -2.4019852e-32 0.025530238 -0.2891186 -0.010830669
0001b0 56 79 cb 3b 8d fb 1b 3d bd d1 53 3d 73 18 7b be
       0.0062095327 0.038081694 0.051713694 -0.24521045
0001c0 6e b7 6e bd 24 e8 bf 3d 97 89 63 a9 d3 3b e8 0c
       -0.0582804 0.09370449 -5.0523465e-14 3.5781265e-31
0001d0 73 25 62 be 06 cf ce 3d d9 55 82 3d 2d 1d 84 bd
       -0.22084598 0.1009808 0.063640304 -0.06450877
0001e0 41 50 6f bd 8e c0 9a 3d 86 b3 b5 3d ab 83 23 3e
       -0.058426145 0.07556258 0.08872132 0.15968196
0001f0 b4 5a 1b bd ef b9 fe bd d0 06 00 bd 01 da b2 bd
       -0.037928298 -0.12437808 -0.031256497 -0.08732987
000200 6a d0 6c bd 6d 51 84 8c 83 ef e8 3d 2a eb fc b5
       -0.057815947 -2.0386827e-31 0.11373808 -1.8843905e-06
000210 5f 53 e9 8d 20 b3 b7 3d ef 0b 29 be 71 78 6a 9a
       -1.43798045e-30 0.08969712 -0.16508459 -4.8487358e-23
000220 05 02 60 3d da 7d ca bd 0e d9 54 3b 2e 0d 9c be
       0.054689426 -0.098872855 0.0032478007 -0.30478805
000230 1b 54 c0 bd a0 3a 26 3d 3b 67 e1 3c ff 9a 57 be
       -0.09391042 0.040583253 0.027515044 -0.2105522
000240 f4 be f2 bd e2 8e 25 3e 7e ef e3 be 6a fe ee bc
       -0.11852828 0.16167787 -0.44518656 -0.029174048
000250 67 39 ec 3c c4 52 fd bd a1 e2 8e 8e 34 19 ab be
       0.028835965 -0.12369302 -3.522394e-30 -0.33417666
000260 58 a2 69 0d b8 a9 00 be fc 57 cc be 45 b0 96 bc
       7.1994083e-31 -0.12564743 -0.39910877 -0.018394599
000270 e1 27 9d 3d 53 80 26 3c 11 d6 54 be 47 43 77 0c
       0.07673622 0.010162431 -0.20784785 1.9048433e-31
000280 cc 24 82 3d bf fa 5a bc 35 83 e1 bd 67 8a aa 3d
       0.06354675 -0.013365447 -0.11011354 0.083271794
000290 90 ef 11 bf 3d 35 21 be 6c 02 27 be dd 71 00 3c
       -0.5700617 -0.15742965 -0.16309518 0.007839647
0002a0 68 1b 1b a7 82 67 ce bc 99 af 61 3d e1 e1 1b be
       -2.1525428e-15 -0.02519584 0.055099104 -0.15222885
0002b0 53 a9 82 3d 53 81 04 3e d6 2e 99 0d fd 1c 69 3d
       0.06379952 0.12939958 9.440628e-31 0.05691241
0002c0 c9 4f 9f be b9 57 2d be 12 0a e0 3d f0 5d ce 3d
       -0.3111556 -0.16927995 0.10939421 0.10076511
0002d0 ac 8e e8 be a4 d6 66 be c7 22 06 3d c0 ca f2 bd
       -0.4542135 -0.22542816 0.03274801 -0.11855078
0002e0 81 da d6 be 0a 43 2f be 1b a6 95 39 a0 80 c2 be
       -0.4196358 -0.17115417 0.00028543253 -0.37988758
0002f0 27 19 8e 3d 1c fb 88 25 7e db 86 0c fc 49 3d 3e
       0.06938391 2.3762398e-16 2.077807e-31 0.18485254
000300 c9 c2 bd 8d 81 f9 e3 0c f8 30 84 be a8 29 7e 3d
       -1.1694917e-30 3.5125052e-31 -0.2581861 0.062051445
000310 17 73 d3 3d 0e 0a 27 bf 05 ee 17 bf fb dc b1 3d
       0.10324686 -0.6524972 -0.59347564 0.08684727
000320 b6 9a 30 3e f7 5d da 3d 1a 5d 31 3b 85 30 b8 3d
       0.17246518 0.106624536 0.002706355 0.08993629
000330 9b 86 1b be 1d a6 2d 3b 0f 17 e7 3a 23 52 14 3b
       -0.15188067 0.0026496716 0.0017630773 0.0022631965
000340 b6 62 83 bd 10 af 12 be 84 27 b2 bd ac 65 8c bc
       -0.06415312 -0.14324594 -0.08698943 -0.017138325
000350 bb a8 f5 35 bd 41 95 3c 4e d6 41 3e 8f 87 db 3d
       1.830303e-06 0.018219823 0.18929407 0.10719215
000360 d4 1b 17 3e 0e 68 28 3d 67 8f a1 b3 1c 91 18 bd
       0.1475671 0.04111486 -7.5232315e-08 -0.037247762
000370 ba 3b 91 be 25 07 fa a4 37 bc 91 3d a9 30 b0 be
       -0.2836588 -1.0843232e-16 0.07115977 -0.34412125
000380 44 df a9 3d c3 56 59 bc 90 89 3e bb 06 f4 04 bf
       0.08294538 -0.0132653145 -0.0029073693 -0.5193485
000390 13 d5 f7 3c dc 4a 25 9a 1d 81 f7 3d 9d 72 ae be
       0.030252969 -3.418167e-23 0.12085173 -0.34071818
0003a0 ae 86 83 0a 9a 84 3f be ff e7 b8 be f8 76 d1 3d
       1.2665502e-32 -0.18702927 -0.361145 0.102277696
0003b0 05 39 e2 be 69 03 8e 3d d3 c8 5c bd 58 07 d2 bc
       -0.44184127 0.06934244 -0.05390246 -0.025638267
0003c0 2d cd 10 3e dd e5 a0 be 5a b9 b3 a5 80 09 81 0d
       0.14140768 -0.31425372 -3.117715e-16 7.952526e-31
0003d0 44 ea 99 3d e8 d3 5c 3d 08 44 82 3d d3 a9 3f 3e
       0.07515386 0.053913027 0.06360632 0.18717127
0003e0 57 cb b0 3d c0 94 2d bd b0 fd df 3d f8 c8 90 be
       0.08632534 -0.042378187 0.10937059 -0.28278327
0003f0 ef 4d bd be 6e 4d 98 be a8 8b c3 3d 4d c6 96 3d
       -0.3697352 -0.29746574 0.09548122 0.073620416

fc2.bias f4 [113]
000000 74 93 b1 bd ab 15 2e 3c 30 00 fd 3b d3 d5 f5 bb
       -0.086707026 0.010625283 0.0077209696 -0.0075022965
000010 92 6d a3 3b 11 6c 46 bc 77 04 d0 3c ef 07 8a 3c
       0.004987427 -0.012110726 0.025392754 0.016849486
000020 a3 7b b8 bc be 29 db 3a a5 2a ae 3c 4a fc 9d 3c
       -0.022519892 0.0016720814 0.021260569 0.01928534
000030 f8 f4 c7 39 2c cf 9c bb 2d 0a d6 bc 40 fd 65 bb
       0.00038138754 -0.004785439 -0.026127899 -0.0035093576
000040 7c 60 c3 b6 f6 3c de bc cd 29 de 3b ad c4 13 3c
       -5.822685e-06 -0.027128678 0.0067798854 0.009019059
000050 97 50 bd 3d ff cb 17 bd 9b 8f f0 3c e1 db 14 3a
       0.09243887 -0.03705978 0.029365351 0.00056785165
000060 2e 85 13 bd 4e b7 ea 3c bf 48 00 3a 8b e4 0e 3d
       -0.036015682 0.02865186 0.00048936525 0.034885924
000070 b8 c8 6e 3c e5 62 33 bd 26 1a 11 bd c5 12 2d 3c
       0.014574222 -0.043795485 -0.035425328 0.010563557
000080 54 54 9d bc 2f a2 80 b8 0e 64 64 bb b6 e9 f3 3c
       -0.01920525 -6.133725e-05 -0.0034849676 0.029774528
000090 55 e7 96 3c 89 2a 02 bd 36 d7 8d bd e1 5b 95 bd
       0.018420855 -0.031778846 -0.06925814 -0.07292915
0000a0 72 ca 31 3d 0d 8f e8 3c 07 18 1f 3b 15 b6 fc bb
       0.043405958 0.028388524 0.0024275796 -0.0077121356
0000b0 af 84 93 3d e8 32 53 bc f2 d8 ad bd be cd eb bd
       0.07203042 -0.012890555 -0.08488645 -0.115138516
0000c0 b0 a8 1e bd 9c 9b 9b 3d 84 5d b5 bc e8 ab b1 3b
       -0.03873509 0.075980395 -0.022139318 0.005422104
0000d0 2c c5 ae ba 40 f9 35 3c 41 6e 9a 3c dc a7 91 bd
       -0.0013333908 0.011106789 0.018851401 -0.07112095
0000e0 08 36 62 bc 31 fb 17 3d 3b 9d 0a 3d d2 91 d3 3c
       -0.013806827 0.03710479 0.033841353 0.025826368
0000f0 49 f5 d8 bc f8 e7 7a bc 11 bb 57 3c 8b eb 61 bd
       -0.026484149 -0.015314095 0.013167159 -0.055156272
000100 e0 3d 72 bc 52 91 d1 3c 10 e7 26 3d 81 34 59 3c
       -0.01478526 0.02558199 0.040747702 0.013257147
000110 04 75 2b bb b7 97 1f bb 82 ae dd bb 87 ec f4 39
       -0.0026162276 -0.0024351904 -0.0067651877 0.00046715533
000120 ee f6 86 bc 23 55 52 3d bb c2 e3 3c 04 8b 1b 3d
       -0.016475167 0.051350724 0.027802816 0.037974373
000130 38 14 0a bd 76 e5 e9 bc 52 39 e4 3c e1 bf 48 bd
       -0.03371069 -0.028551798 0.027859364 -0.049011115
000140 61 35 bc 3c 5f 0a ae bc cb 5e cb 3c 0b d6 fe 3c
       0.022974672 -0.02124518 0.024825474 0.031107923
000150 0a 29 3e bd 3c 5d 6b bd 87 68 36 3c d3 53 fa 3c
       -0.046425857 -0.057461962 0.01113332 0.030557549
000160 5c bf b7 3c 18 45 51 3c 4c da 69 3c a2 dc f2 3c
       0.022430114 0.012772821 0.014273237 0.029646222
000170 c1 e3 02 bd b6 1d e7 bc 57 ca 98 bd 59 b7 3b 3c
       -0.031955484 -0.02821241 -0.07460468 0.011457288
000180 e8 59 1b 3c 20 6c 3d 3c 1b e7 ba 3c 0b 09 dd ba
       0.009481885 0.011561424 0.022815278 -0.0016863657
000190 f3 36 8a 3b 7d 62 70 bc 4f 53 03 3d 1f 5d 9b bd
       0.0042179762 -0.014671919 0.03206187 -0.07586121
0001a0 7b 66 50 3d 52 dc 57 3b 39 25 61 3b cd 27 d9 3c
       0.050878983 0.0032937718 0.0034354462 0.026508236
0001b0 73 02 6e bd d0 79 ad 3c 06 53 39 bc a3 af ab 3c
       -0.058107805 0.021176249 -0.011311298 0.020957774
0001c0 50 65 b9 bc
       -0.022631317
