models/snn_final.pth (torch, 252770 bytes, 5 tensors)

embed.weight f4 [113, 128]
00000000: 43b0 393e 04c8 343d 691a 30bd b4ec 693d
00000010: 4e5e 1abe b02d 74bd 2fd5 eabd b580 b93c
00000020: 1c04 3cbd 0453 1dbe 34c7 2c3e 1b57 063d
00000030: 8bbc 88bd c8e1 d03d bfac 9e39 7487 b6bd
00000040: 6129 e7bc 4eff ab3d 05d8 ba3d 092d 37be
00000050: fb63 f43d 5a7b fc3b ab59 c83d d8cd 263e
00000060: 21ae b53d 97c8 aebb dcb1 49bd af83 113e
00000070: 9199 b33d 4930 47bd d76b dd3d c284 efbd
00000080: 86d1 bd3d 3594 1abe 2b2f 9ebd 0388 e0bd
00000090: 210b 2c3d e052 273e a8d0 693b 3cd5 88bc
000000a0: 6207 53bd 0b36 19bd c0fb fcbd 000a da3d
000000b0: 3891 eb3d 9eb4 a23d 093e 45bc 5737 1fbe
000000c0: 3556 14be a8c9 4f3d e866 523d 95c6 033d
000000d0: c37b d6bc 330d a03d 2f62 c5bd 74db 07be
000000e0: 5356 2bbd f344 ac3d 472e a23d d7c5 a3bc
000000f0: ce99 783d e645 88bd 895f 9f3d 27de 15be
00000100: dc0a 96bd 0ef4 fbbd 0e50 b33d b850 91bd
00000110: 34d8 ffbc f7c4 a33d f200 5c3d 5547 6d3b
00000120: 58cd 073e f379 e93d 9fc9 a63d b1be 20be
00000130: 3c6e debd f1ee 8dbd 1cbe a5bd d313 bfbd
00000140: c2a0 9dbb 7dfd d2bd c538 b1bc 53ed 9dbd
00000150: 94e2 383e 379e d63d 5b3f 683d 2024 17bc
00000160: 2b2c 913d 156c f6bd 5d12 3b3e 6458 a4bc
00000170: d507 2abe cafa 9dbd 52c8 e63c 3d7c b9bc
00000180: 72b4 18bd 4096 1ebd 50ac 183d 5a62 353d
00000190: e7d0 173e ea27 003e 2d3f dc3d 49c5 b3bd
000001a0: e7fd d6bc 3266 0b3d d19b 543d d1f9 1fbe
000001b0: 4c30 29bd 4ee1 213e e668 8c3d 38fd 82bd
000001c0: 2bbd 36bd b82e b8bd 025e 26bc 6d90 c1bd
000001d0: 45d3 a9bb 13dd 083e 4ad4 853d 4389 4fbc
000001e0: e8de 0a3b 4fcd d13d 227b abbc 2420 2fbe
000001f0: 64ef f83c b1a1 86bd b6a2 88bd 6875 753d
00000200: e400 9fbd 5c3b d8bd 3a06 00be ab73 8ebb
00000210: 981d 1abe acd0 183e 5892 0bbe 92cf 683d
00000220: 8087 8a3d 35b6 b0bd d4af c5bd 0dfd b13d
00000230: bcb3 15bd a8c1 e03c cb00 b13b 0c62 613d
00000240: 554b 8c3b de7d 573d 837e 6bbc d28e e9bd
00000250: 6c23 203e 0af6 aebd 8d6e b03c 1d73 1b3e
00000260: d3b7 97bc a53a d7bd ba85 5d3d dd02 e13d
00000270: 4efd 03be 7281 08bd eb85 c4bd f515 d83c
00000280: 7330 11bd a8af 95bd a390 ebbc 1ac3 debc
00000290: f9bd cfbd 912e f43d b856 f2bd eef6 b4bd
000002a0: d981 87bd b767 373d 5e19 56bd d137 57bd
000002b0: 265c fdbd 0d7e ebbd f97a ecbd b119 e53c
000002c0: e7d9 18be 35a6 8b3c 34d8 fbbd b892 e6bd
000002d0: 176a aa3c bf93 e6bd 903a b1bd f858 853d
000002e0: 8234 fbbc 990f 16bc f915 5ebd bb97 b6bd
000002f0: 001b 8f3d 2468 2cbe cefe d53d fb1c 403d
00000300: b0fc 89bd aa33 a73d 5c8c fd3c 49dd 643d
00000310: 165a b6bd 8a99 09be e959 eebc 0e83 a2bd
00000320: 7c70 98bd 40cb 8a3d 08c8 7abd 6fe8 d33d
00000330: 912a 053e 82df 05be dd9b 833c 7bf2 9a3d
00000340: 2aa6 053d 8cff fb3c 29fb 9a3d c3c5 f63b
00000350: 0d09 53bd e467 05be c4c9 5e3d 0e76 3cbd
00000360: 192a cbbd bd6d ce3d a545 a2bd c759 293d
00000370: 0c3f f7bd ca06 233d 6a98 e1bd 4658 c63d
00000380: 62b3 bfbd 15a9 d8bd f96b 543c 966c ca3d
00000390: 3a0d 02be 0282 cb3d 2382 89bd 47f3 103e
000003a0: c78c babd ba4f dabb 23e3 ecbd 2a1b cdbd
000003b0: ed0a 163e 9de8 c2bd 16f3 c23d b2a9 013d
000003c0: 5d1c 18be 1070 21be 9918 c03c 08d1 a73d
000003d0: c30a 03be 7ced 063e 2965 be3c 8eaa dd3c
000003e0: 26a2 aebd c575 c53d fabb 123e 20f6 cc3d
000003f0: 9d83 0f3e bebc f6bd ed34 be3d bd1e 663d
0.18133645 0.044136062 -0.042993937 0.057110503 -0.15075037 -0.059613883 -0.11466443 0.02264438
-0.045902357 -0.15363699 0.16872865 0.032797914 -0.06676587 0.10199314 0.00030264814 -0.089125544
-0.028217973 0.08398305 0.09123234 -0.17888273 0.11933132 0.0077051343 0.09782728 0.1628946
0.08871103 -0.0053339708 -0.049241886 0.1421039 0.08769525 -0.048630033 0.108115844 -0.116952434
0.09268479 -0.15095599 -0.0772384 -0.10963442 0.0420028 0.16340208 0.0035677347 -0.01670324
-0.051520713 -0.037405055 -0.12352705 0.106464386 0.11502308 0.07944606 -0.012038716 -0.15548454
-0.1448601 0.050729424 0.05136767 0.032171804 -0.026182061 0.078150176 -0.09637868 -0.13267308
-0.041830372 0.084115885 0.07918983 -0.019991798 0.060693555 -0.06653957 0.07781894 -0.14635526
-0.0732629 -0.12302409 0.087555036 -0.07095474 -0.031231023 0.079965524 0.05371184 0.0036205847
0.13261926 0.11400213 0.08143925 -0.15697743 -0.10860869 -0.0693034 -0.08092901 -0.09329953
-0.0048104236 -0.10302255 -0.021633515 -0.077112816 0.18055183 0.10479396 0.056701045 -0.009224921
0.070885025 -0.12032334 0.18268724 -0.02006168 -0.1660455 -0.0771385 0.028171692 -0.02264225
-0.03728146 -0.03871751 0.037273705 0.04428325 0.14825784 0.12515226 0.10754237 -0.087778635
-0.026244117 0.034033008 0.05190641 -0.15622641 -0.041305825 0.15808603 0.06855945 -0.06395954
-0.044614 -0.08993286 -0.010154249 -0.09451375 -0.005182656 0.13365583 0.065346316 -0.012667003
0.0021189991 0.10244238 -0.020932738 -0.17102104 0.030387588 -0.06573809 -0.0667166 0.05992642
-0.07763842 -0.10558197 -0.12502375 -0.004347285 -0.15050352 0.14923352 -0.13630044 0.05683858
0.06764126 -0.08628503 -0.09652677 0.08690844 -0.03654836 0.027436092 0.005401706 0.055025145
0.004281441 0.05261027 -0.014373424 -0.11404194 0.15638512 -0.08543022 0.02153709 0.15180631
-0.018520271 -0.105092324 0.05408261 0.10986874 -0.12889597 -0.033326574 -0.09595855 0.026377657
-0.035446595 -0.073088944 -0.028755492 -0.027192641 -0.10143656 0.11922944 -0.118329465 -0.088361606
-0.06616563 0.044776645 -0.052270286 -0.052543465 -0.123710915 -0.11498652 -0.11546893 0.027966352
-0.14926873 0.017047027 -0.12297097 -0.11258453 0.02080254 -0.11258649 -0.08653748 0.0651111
-0.030664686 -0.009158992 -0.054220174 -0.08915659 0.06987572 -0.16836601 0.10448991 0.046902638
-0.067376494 0.08164151 0.030950718 0.055875096 -0.08903901 -0.13437477 -0.029095607 -0.07935153
-0.0744333 0.06777048 -0.06122592 0.103470676 0.13004519 -0.13073543 0.016065532 0.07565781
0.03262917 0.030761503 0.07567436 0.0075308993 -0.051522303 -0.13027912 0.054391637 -0.046011023
-0.09920139 0.10079525 -0.0792344 0.041345384 -0.12072572 0.039801396 -0.11015399 0.096848056
-0.093603864 -0.10579125 0.012965196 0.098839924 -0.12700358 0.099369064 -0.06714275 0.14155303
-0.091088824 -0.006662336 -0.115667604 -0.10014947 0.14652605 -0.09517024 0.09519021 0.031655975
-0.1485457 -0.15765405 0.02344923 0.081941664 -0.12797074 0.1317653 0.023241596 0.027058866
-0.08527021 0.096416034 0.1432952 0.10007882 0.1401505 -0.120477185 0.092874385 0.056181658

fc1.weight f4 [128, 256]
00000000: 8dea b1bd 9d32 a9bd 1c2c 463d ab8d 8e3d
00000010: b7cf 80bd fc58 373d 1d33 edbd eb11 383d
00000020: 1947 a8bb 68cd c13b d00a 0a3d 367b bfbc
00000030: 7cfe 853d a7bf 763d bfdc ddbd 2c55 82bd
00000040: ab44 633d 1e99 a33d a9bf 043d f517 e5bc
00000050: 75c0 dc3c 43b7 f0bc 4d00 03bd 1086 533d
00000060: 725d 703d f6dd bf3c 5b98 613c 8feb 153d
00000070: 7c44 1dbd a173 993c 350a f7bc eeac 2f3b
00000080: 5bd3 473b 032e afbd f81d 8cbc 66bf 0c3c
00000090: 53e8 bcbc 69fc 383d a1c5 1dbd ccaf 1e3d
000000a0: 392c 6fbd 002b ec3d 2377 03bd eae0 eebd
000000b0: 68c0 f9bd 1f1e 99bd 6d2d cebd 50ab 21bb
000000c0: 6a69 d0bc 108e 933d 5361 3d3d c656 563d
000000d0: e445 283d b433 f83d b9bc 52bd 9251 91bc
000000e0: 7070 643c d6b4 c13d 4f2a 303c 5c8f 9bbd
000000f0: 7c90 8abd 7840 84bd 3316 efbd 2a75 f13d
00000100: 9974 3abd 729b 8d3d 9e1f cf3d b81d 073d
00000110: 71af a73d 0e3e bc3d 2a45 5dbd 61b9 d2bd
00000120: 6978 e83d 7248 823d c069 a63d a3c8 a03d
00000130: ef2f 043c f065 82bc c819 8f3d e0be 4bbd
00000140: 5d50 8dbc 1ce6 99bc d2ad 1fbd 0433 a7bc
00000150: c9c8 3d3d 52e7 c7bc abd5 153e 4437 e0bd
00000160: 0d86 41bd 04ee 12be 0a46 263d 54e8 2f3d
00000170: 402b bebd ef3c 7bbd 78da 6c3d e7e8 e8bd
00000180: 1a64 15bd e24c 7fbd a939 da3d ca6e 38bc
00000190: b350 8a3b a279 893d eb29 933c 3812 e3bc
000001a0: 7125 a13c 4e04 123d f63d 1a3d d01f b5bc
000001b0: da22 0f3e 2cd5 0ebd e835 c7bb 0c78 87bd
000001c0: 805b fb3b 59f0 b0bd 5d1a 32bd e4f0 06be
000001d0: 1a31 0e3d 4c44 b43d a799 a3bc de43 2dbd
000001e0: f747 da3d c985 2f3c ea76 80bd 5be3 20bd
000001f0: caf3 873d 2998 6fbc 191e 95bc 964a 3f3d
00000200: 33df f8bd b1e1 fb3d be2f 323c 75f5 f4bd
00000210: e38a e6bc 5715 d8bd 4cc3 edbc c8ff 0dbd
00000220: 2d86 9cbb 3bea 223a 7465 89bd a25d 64bc
00000230: 681c 02be 8b29 473c ac20 ea3b 74a2 74bd
00000240: 2d9d b83d 6fef 003d c734 313d 1369 f639
00000250: 4250 583c 877c a8bd ee7f adbc 08e7 943a
00000260: b638 4a3d 572c 8fbb 4379 9ebd f829 783d
00000270: 6cf7 de3d d7f6 d5bc b012 3cbd f196 a03d
00000280: 037f eb3a bbb2 b1bc 6ca9 7bbc 101a cebb
00000290: bdbf 5a3d 4ec7 b93d 48b0 e53c 3944 133d
000002a0: 9e06 1b3c b5b4 b53c 8063 25bd 0a52 813d
000002b0: 5019 9f3b 74a3 c83d 6c23 c33c 8965 ac3b
000002c0: d58d b1bc d3ab 55bd 2600 763c 7427 25bd
000002d0: 52d7 aebd 4b15 bfbd a5e8 813d 3dda c6bd
000002e0: 0675 33bb 2280 793d 2e97 fd3c 43af f0bc
000002f0: 7b32 eb3d 2abf 79bd 1ddb 17bd c0d1 74bd
00000300: 03ed 1f3d ae2c a5bc e206 dd3d c17e 8e3d
00000310: bdc0 043d 9252 96bd f655 743d 1441 263d
00000320: cbb2 743d 257b 913d 340e e3bc 214f 34bc
00000330: 38f1 c03a 9fb1 97bd 1c76 ad3d 08d0 44bd
00000340: ea18 073e 5f69 143b f4c0 7abd 0e82 c8bd
00000350: bf12 2e3d 2286 a7bd 9d0a 4a3c 8404 073d
00000360: b20c 0cbb 192e 6cbd 5ae5 243d 7638 eebc
00000370: 1f0e 513d c56a 99bc 43aa b4bb daa6 00bd
00000380: 4ba6 393d 8cbd e1bb 372f 0cbe b21f 7cbd
00000390: 684f d9bc 2cec 3ebc 2a55 88ba 7727 38bd
000003a0: 3740 d03d 4146 a93d f08f bcbc f8a8 00bd
000003b0: 07d9 14be 3584 9abd b315 6cbc 1114 87bb
000003c0: 3589 d9bd 0072 4f3d b265 d1bc 251f 843d
000003d0: 42e2 48bd 694e b7bd 79d7 403d fb5a e13d
000003e0: 48d9 2d3d c228 24bd a60f fa3c 0d58 303c
000003f0: 72fc 21bd c8f4 863d 2627 253d af55 183d
-0.08687315 -0.08261607 0.04838191 0.06960615 -0.062896185 0.044762596 -0.11582015 0.044938963
-0.0051354286 0.005914379 0.033701718 -0.023374181 0.0654268 0.060241368 -0.108331196 -0.063639015
0.05548541 0.07988189 0.032409344 -0.027965525 0.02694724 -0.029384261 -0.03198271 0.051641524
0.058682866 0.023421269 0.0137692345 0.0366016 -0.03839539 0.018731894 -0.030156234 0.0026805955
0.0030490968 -0.08553698 -0.017104134 0.008590555 -0.02306 0.045162592 -0.03851855 0.03874187
-0.058391783 0.11531639 -0.03209604 -0.11663993 -0.12194902 -0.07476448 -0.10067258 -0.002466876
-0.02544089 0.07204831 0.046235394 0.052328847 0.041082278 0.121192366 -0.05144951 -0.017739091
0.013942823 0.0945832 0.010752275 -0.07595703 -0.067658395 -0.06457609 -0.11674156 0.117899254
-0.045521352 0.069144145 0.101134524 0.032987326 0.0818776 0.091915235 -0.054021038 -0.102892645
0.113510914 0.06361474 0.08125639 0.078507684 0.008068069 -0.015917748 0.06987339 -0.04974258
-0.017250234 -0.018786483 -0.038984127 -0.020410068 0.04633406 -0.024402294 0.14632289 -0.10948041
-0.04724698 -0.14348608 0.04059414 0.042946175 -0.09285593 -0.061337408 0.057825536 -0.113725476
-0.036472417 -0.06232918 0.10655529 -0.011256883 0.004221046 0.06712653 0.017964324 -0.027718648
0.019671174 0.035648637 0.037656747 -0.022109896 0.13978139 -0.034871265 -0.006079424 -0.06614694
0.0076708198 -0.08639593 -0.043482173 -0.1317783 0.034714796 0.08802089 -0.019970728 -0.04230105
0.106582575 0.010713049 -0.06272681 -0.039279323 0.06638296 -0.01462368 -0.018202828 0.04670199
-0.12151947 0.122989066 0.01087564 -0.1196088 -0.028142398 -0.10550945 -0.029023789 -0.03466776
-0.004776737 0.00062147126 -0.06708804 -0.013938339 -0.12706149 0.012155901 0.007145008 -0.05972524
0.09014354 0.03147834 0.043263223 0.00046999063 0.013202729 -0.08226877 -0.021179166 0.0011360357
0.04937049 -0.0043692994 -0.077379726 0.0605869 0.10887036 -0.026118679 -0.04591626 0.0784129
0.001796693 -0.02169167 -0.015360218 -0.006289728 0.053405512 0.090712175 0.028038159 0.035953734
0.009462027 0.022180894 -0.040378094 0.06314476 0.0048553124 0.09796801 0.023820601 0.0052611274
-0.021674076 -0.052165817 0.015014684 -0.04032083 -0.08537163 -0.09330233 0.063432015 -0.097095944
-0.0027382984 0.060913213 0.030955877 -0.029380446 0.11484238 -0.060973324 -0.037074197 -0.059770346
0.03904439 -0.020162906 0.107923284 0.0695777 0.032410372 -0.07339968 0.05965229 0.040589407
0.059740823 0.07103566 -0.027716734 -0.011005194 0.0014720326 -0.074069254 0.08469793 -0.048049957
0.13193098 0.0022645814 -0.06121917 -0.09790431 0.042498346 -0.08179881 0.012331632 0.03296329
-0.0021369872 -0.05766115 0.04025779 -0.029079657 0.051038858 -0.01872767 -0.005513461 -0.031409122
0.045324605 -0.006889051 -0.13689886 -0.061553665 -0.026527122 -0.011652987 -0.0010401357 -0.04495951
0.10168498 0.08265353 -0.023017853 -0.03141114 -0.14535914 -0.07544748 -0.01440947 -0.004122265
-0.10621873 0.05064583 -0.025561187 0.06451253 -0.0490439 -0.089505024 0.04708049 0.11003681
0.042443544 -0.040077932 0.03052504 0.01076318 -0.03954739 0.06589657 0.040320538 0.03719109

fc1.bias f4 [128]
00000000: 2517 d33c ef23 c53c 5f9d b13c 0390 f83c
00000010: 9a68 013d f1e0 003c a4cc 113d a623 ff3c
00000020: 0b59 253d 8c18 db3b 6640 8a3c 83ff 803c
00000030: 24e9 b73c ddb4 143d 8761 653d dd02 f63c
00000040: f3db ec3c 3752 0f3d 11d2 f73c 3aa4 2f3d
00000050: 8944 ec3c abce 103d 310d 2d3d 0c0c 553c
00000060: 93c4 823c b56c bd3c 5d0f fb3c 1ced 5d3d
00000070: c575 7f3d 22de 0f3d 09c6 283b c2a2 b23c
00000080: d8ae 133c 5f94 1d3d 6840 fd3c a65e a73c
00000090: 41af 623c 0443 013c 8ac9 293d 176e c83c
000000a0: b58c 743d 0dfc 983d 81a8 d73c 97a2 a03c
000000b0: f81e 463b 0b70 863b 3f42 1d3d 4b88 0d3c
000000c0: 8b61 353d 8148 4c3c f4a4 303d 246e fb3b
000000d0: 80d9 a83c adef 703c 89ae 6f3b a004 c23c
000000e0: caec 1f3d 7fb0 373d 950c c63c 79d7 313d
000000f0: 977e 873d c577 b03a b90d 023d 0aaa 053d
00000100: 13bc 8d3c 1374 d23c 278c b43c 32b8 363d
00000110: 12a0 883c 7a68 b23c 199e 923d 5ca8 b93c
00000120: aee2 143d 276e be3c d5fc 183d 46be 323d
00000130: 1f6d 693d 0c44 c93c bed2 b43c 0c93 b93c
00000140: 7066 f53c 2c15 4f3d 212b e13c 2213 023d
00000150: afa4 843c d81d e73c 8892 d13c 35b9 363d
00000160: 8805 393d c589 f13c 0922 d03c e8c4 863c
00000170: 6a6f 0b3d bceb 5d3c 198f d83b 0a9c b33c
00000180: 62c2 183d d7d1 cd3c 52c1 cc3c 1b48 003d
00000190: 0c59 893d e2ab 1e3d 16fd 103d 88e3 b73c
000001a0: a466 193d b125 b83c bea9 ce3c f413 c93c
000001b0: 6be6 cc3c e866 803c ec43 063d 2bfe e43c
000001c0: 9894 173d d3e5 013d 9101 203d 512c 123d
000001d0: f519 563d e9f7 663d 5594 373d 26b7 973c
000001e0: d476 eb3c cb91 d43c 9bfa a23c 493b ad3c
000001f0: 0b31 1b3d 881b f53c edec 3c3d e8f4 f13c
0.025767872 0.024064986 0.021681486 0.030342108 0.031593896 0.00786613 0.03559555 0.031144928
0.04036812 0.006686276 0.01687641 0.015746837 0.022450037 0.036305297 0.056001212 0.030030662
0.028913474 0.034990516 0.030251535 0.042881228 0.028841274 0.035353344 0.04224891 0.0130033605
0.015962875 0.023123125 0.030646974 0.054181203 0.062368173 0.03512395 0.0025752804 0.021806125
0.009013854 0.038471576 0.0309145 0.020430874 0.013835729 0.007889513 0.04145197 0.024466557
0.0597045 0.0746995 0.026325466 0.019608779 0.003023086 0.004102712 0.038393255 0.008638452
0.044282477 0.012468458 0.04312606 0.007673042 0.020611525 0.014705581 0.0036572537 0.023683846
0.03904418 0.044846054 0.024175921 0.04341838 0.06615942 0.0013463428 0.03175137 0.032632865
0.017301595 0.025690114 0.022039486 0.044609256 0.01667789 0.021778334 0.07159061 0.022663288
0.03634899 0.023245884 0.037350494 0.04363849 0.05698883 0.02456858 0.022073146 0.022653125
0.029956073 0.0505573 0.027486386 0.031756528 0.016191809 0.028212473 0.025582567 0.04461022
0.04517129 0.029484639 0.025406854 0.016451314 0.0340418 0.013544973 0.0066088554 0.021924991
0.037294753 0.025124473 0.024994526 0.031318765 0.067064375 0.03873814 0.03539761 0.022447363
0.0374514 0.02247891 0.025227424 0.024545647 0.025012216 0.01567407 0.03277962 0.027953228
0.037006944 0.031713318 0.039063994 0.035686795 0.05227085 0.05638877 0.044819195 0.01851995
0.028743185 0.025948426 0.019894889 0.021146433 0.037888568 0.029920354 0.046124388 0.029535726

fc2.weight f4 [113, 128]
00000000: 53c5 42bd 4433 a6be edd8 82b9 4c70 80bd
00000010: 2eca 56be 5a0f 5bbe 58e5 9cbe 7706 cf3b
00000020: 545b fbbd 9283 a9bd a622 1dbe 70c1 19be
00000030: ab5e 2ebe 998d 0bbe 0c5b 383e 0b69 773d
00000040: dae8 073d 99b7 80be 9c5c 74be 7841 d63d
00000050: a167 88bd d503 563c a7f5 debc 3473 7dbe
00000060: 6f09 d93b 9597 89be f6b0 133e bf31 94be
00000070: 24e3 0a3e 9aa1 83be 4b88 f83c 126f f8bc
00000080: 66c9 2f3e bde9 c63d af2a 95bd 3c6e e53c
00000090: 368c c73c 2240 ffbd 76bb b9be 5c1c 243e
000000a0: c1d7 12bd 1bff 5abb f8ce ce3d 3714 953d
000000b0: 8d6f 123e 717b 5f3d fff9 e6bc 234e b0be
000000c0: 6777 32ba dc42 053e b070 f93d 2f36 38be
000000d0: 10b6 283e 8ab9 88bc 7edb e13d 4c7a 043d
000000e0: 1759 2dbd 26d4 cd3c d634 0bbc 8805 3dbe
000000f0: 486c b43d 3f0b 6b3e cf61 9e3d 1c3f 053e
00000100: fb20 09be 9998 b3be b9ed cebc bac9 76bd
00000110: 3d5f 2a3e 32e6 0abe 75ad 223d c492 93bd
00000120: 4fcf 0e3e 484d 8fbe 502c be3d 1837 613d
00000130: d714 07be a3bb 91bd 0866 7bbe 6f25 52be
00000140: 6ac6 8e3c f5c8 8dbd 8ff4 69bd 5d11 ca3d
00000150: 636b c2be a845 8c3d 19f2 013e 78f0 f33d
00000160: 936f 0bbe c9cf d0bd 046a 213e 584e 4f3e
00000170: 8b80 953d cfe5 293e 17c7 7cbe 30e0 1ebe
00000180: d307 a2be 0b27 f5bd 70d0 193e 3d50 233d
00000190: 7ef7 c53d 3254 d4bd e3be eb3c d97f e6bd
000001a0: ca35 7f3d 0a82 3dbe 3374 0f3e 4223 6a3d
000001b0: 0184 6e3d 4e46 0fbe d953 92bd 2def 8abe
000001c0: 2822 013c 2892 d9bc 7086 283e 5195 9cbd
000001d0: a0e9 7bbe d515 83bd 8943 4abe 0f81 0f3e
000001e0: a287 8e3d f560 c53d 5083 89be 7b40 fc3d
000001f0: 0417 01be fdc1 063e ba6d af3d a57c 59be
00000200: b7f3 0dbe 9d26 aabe 7a66 d83b d643 7bbd
00000210: 7f3e 02be b0a4 5cbd 38fc 233d 4805 2c3d
00000220: 1c3e 023e be2f a6be 1dda f53d 947d 11bb
00000230: 12b4 b2bd 53eb 95be 5875 5c3d 4fa7 97be
00000240: 9c48 0b3e e453 a73d 2940 7abe f022 d33d
00000250: 977d d93d 8c54 eabe 4a25 a13d 4550 5d3d
00000260: f982 06be 72c1 c4be e93c debd b104 fd3d
00000270: 5181 553b 511c 803d d8d3 02bd bcf1 0cbe
00000280: a67b 49be 5836 803c f288 113d b2f6 94bd
00000290: b262 f83b 2a2c 323e 1fc6 78be bf6d babe
000002a0: 7eda e23c a912 2d3e 416b d8bd 323c a73d
000002b0: 1595 7a3e 2390 65be 491d 833d 926f e13d
000002c0: bff1 313e 4a92 e93d 6698 efbd 74f0 90be
000002d0: d2b8 0d3e 81ef 113e 626a 20be 086e 64be
000002e0: c845 19be 1604 a6bd dbc5 6f3e 3c82 383e
000002f0: f2f3 203e 8d76 0b3e a96f 95bc b1a9 26be
00000300: 28e7 973d 433d 30be 5beb 153e 0e98 ad3d
00000310: 7ad0 013e 598d 8fbe 0e88 15bc 23d6 35be
00000320: 7bf1 333e 730a 9a3d e0da 62be 640e 45bd
00000330: 9d17 1fbe 700d 99bc 0a0d 6abd 1e33 893e
00000340: af1b abbd 45b2 a4bd ed7d f73c b7b5 59be
00000350: 293e 3cbd ba6d 103e d6d2 b7bd 3ece 74be
00000360: b765 4dbe 5295 463e d9b4 7f3d de48 a53d
00000370: f31e e9bd dd6b 83be d773 93be 96e0 35be
00000380: 7cfc f3bc e9da b1bd ea84 f9bd a055 043d
00000390: 559b 4e3e 238b 883d 5d52 df3c 31c1 6cbe
000003a0: e17f 8dbe bec4 893d 41ad ab3d 6bf0 b93d
000003b0: a56e dd3d 9215 d83d 1ef7 513c 06b4 5b3e
000003c0: 5759 47be ca33 aebe c8b4 a4be 751e 843c
000003d0: 190f 43bd a1b2 743d 248e 303d 2256 f33d
000003e0: 6c76 29be e8fc 3e3e 3e86 12be 3d9f 2dbd
000003f0: bb86 2ebe 91ff 61be 60b4 42be 257b 3fbc
-0.047551464 -0.32460988 -0.00024957155 -0.06271419 -0.20975563 -0.21392575 -0.30643725 0.0063179093
-0.12273279 -0.08277048 -0.15345249 -0.15015197 -0.170283 -0.13628234 0.18003482 0.06040291
0.03318105 -0.25140074 -0.23863453 0.10461706 -0.06660391 0.013062437 -0.027216746 -0.24750978
0.006623439 -0.2687346 0.14422974 -0.28944203 0.1356321 -0.2570923 0.030338427 -0.0303264
0.17166671 0.09712551 -0.07283532 0.028006665 0.02435885 -0.12463404 -0.36275834 0.16026443
-0.03585029 -0.0033416215 0.1009807 0.07279246 0.14300366 0.054561082 -0.02819538 -0.34434614
-0.00068079535 0.13013786 0.121796966 -0.1798942 0.16475701 -0.016690034 0.11028193 0.032343194
-0.04232129 0.025125574 -0.008496484 -0.18459141 0.088097155 0.22953509 0.07733499 0.13012356
-0.13391487 -0.3507736 -0.02525984 -0.060250975 0.16637893 -0.13564375 0.039716203 -0.07205728
0.1394627 -0.27988648 0.09285796 0.054984182 -0.13191544 -0.07115867 -0.2455064 -0.20522092
0.017428596 -0.06923095 -0.057117995 0.09866593 -0.37972555 0.068492234 0.12690009 0.119111
-0.13616781 -0.10195882 0.15763098 0.2024473 0.07299908 0.16591571 -0.24685322 -0.15515208
-0.31646594 -0.119703375 0.15020919 0.039871443 0.09666346 -0.103676215 0.028777545 -0.11254854
0.062307157 -0.18506637 0.1400917 0.05716253 0.058231357 -0.13991663 -0.07144899 -0.27135602
0.007881679 -0.02655895 0.16457534 -0.07645667 -0.2460084 -0.064006485 -0.19752325 0.14014076
0.06959464 0.09637634 -0.26857996 0.12316986 -0.12606436 0.13159938 0.085658506 -0.21238954
-0.13862501 -0.33232585 0.006604013 -0.06134399 -0.12719153 -0.053867996 0.040035456 0.041997224
0.12719005 -0.324583 0.120044924 -0.0022200095 -0.08725752 -0.292811 0.053822845 -0.29619834
0.13601917 0.08170298 -0.24438538 0.10309398 0.106196575 -0.4576763 0.078684404 0.05403163
-0.131359 -0.38428837 -0.108514614 0.123544104 0.00325783 0.06255401 -0.03194031 -0.1376409
-0.19676074 0.015650913 0.03553099 -0.07273616 0.007580125 0.1739966 -0.24294327 -0.36411855
0.027692076 0.1690165 -0.10567332 0.08165778 0.24470933 -0.22418265 0.0640207 0.110076085
0.17377375 0.114048555 -0.116989896 -0.2830845 0.13840035 0.1425152 -0.15665582 -0.22307599
-0.14968026 -0.08106248 0.2341532 0.1801843 0.15718058 0.13619442 -0.01824172 -0.1627567
0.074171364 -0.1721087 0.14640562 0.08476268 0.12677184 -0.28037527 -0.009126676 -0.17757468
0.17572586 0.07521524 -0.22153807 -0.048109427 -0.15536352 -0.018683165 -0.05714134 0.26796812
-0.083548896 -0.08041815 0.030211413 -0.21260725 -0.045957718 0.14104357 -0.08975761 -0.239068
-0.20058332 0.19392899 0.06242833 0.08070539 -0.11382856 -0.2566823 -0.28799316 -0.17761454
-0.02978348 -0.08684332 -0.121835545 0.03230822 0.20176442 0.06667163 0.027260954 -0.23120572
-0.27636626 0.06726979 0.08382655 0.09079059 0.108121194 0.10550989 0.012815265 0.21455392
-0.19467674 -0.34023887 -0.32169175 0.016127804 -0.04762182 0.059740666 0.043104306 0.11881663
-0.1654908 0.18651164 -0.14309022 -0.04238819 -0.17043583 -0.22070147 -0.1901412 -0.011687075

fc2.bias f4 [113]
00000000: 1a0c 98bd 558d 5cbd bf95 51bd e1c1 91bd
00000010: 0b67 bebc c4db cd3c 4665 25bd d960 d8bc
00000020: 5c8c 00bb 1954 a0bd 47dd b2bc 9a23 d9bc
00000030: f562 86bd 5ad9 85bd 7331 2dbd 5081 c6bc
00000040: 220b 24bd 8da3 8fbd a4fc 93bc e7d6 72bd
00000050: 2fd0 74bc 710b 12bd acc0 d5bc 21e3 3f3c
00000060: 4b2d b9bc 6498 03bc ab01 66bd 4561 5cbd
00000070: d84e c0bd f6b4 b6bc e3df 4bbd 28af 0dbd
00000080: e994 5fbd cc6e 5bbd 4575 a8bd dd15 c13c
00000090: 0360 54bd 75d3 c0bd 778f 98bd 5b45 fb3c
000000a0: f9e9 dbbc 0ee6 75bc c16a 17bd 0195 e6bc
000000b0: 266e 51bd b1ea 84bc a210 58bd c4f7 0dbd
000000c0: 2c77 8a3a 8c91 ddbb 001a aebb 544b 43bd
000000d0: 8710 9dbd 64d4 81bd 6864 313c 9757 27bd
000000e0: 56ad 85bd 9e30 26bd fb1c 8cbc dff4 1dbd
000000f0: dd07 19bd fdfd 08bd 38bc 3fbd eed6 48bc
00000100: 5009 75bd 3b64 bcbc 95b6 b6bc d52d 3ebd
00000110: c185 aebc 79b9 8abd b044 41bd 1c45 99bd
00000120: 5204 3cbd bffc f9bc db5f 42bd abbb 80bd
00000130: bea6 99bd a06e 45bd 41df 61bd 59f6 bdbc
00000140: 46e3 a1bc dc9a 9dbd 1669 22bd 58a1 24bd
00000150: 98a9 62bd 140f 54bd dc70 3ebd b6d8 30bd
00000160: 4541 5abd 8b20 dfbd 40a9 48bd f3c8 1bbd
00000170: 2f66 edbc 32f2 75bc e17e 7fbd 123b 19bd
00000180: b49e 40bd 0c86 c2bc 1bc6 b9bd 54e1 88bd
00000190: 4597 1bbd 14a6 1fbd 2a0e 46bc 369a 0bbc
000001a0: e32e 92bc c492 21bd 9182 2fbc 9d6b b7bc
000001b0: b7b7 9ebc 9d09 0dbd ec92 4bbd 939d 043d
000001c0: 08e1 8abc
-0.07424183 -0.053845722 -0.0511682 -0.071170576 -0.023242494 0.025129206 -0.040379785 -0.026413368
-0.001961491 -0.0782854 -0.021834029 -0.026506234 -0.06561843 -0.06535597 -0.042283487 -0.024231583
-0.04004968 -0.07013617 -0.018064804 -0.059286978 -0.014942213 -0.035655443 -0.02609285 0.011711867
-0.022604605 -0.008031938 -0.056153934 -0.0538037 -0.09390038 -0.022303086 -0.049774062 -0.03459087
-0.05458537 -0.05357246 -0.082254924 0.023569996 -0.051849376 -0.09415332 -0.07449239 0.03067272
-0.026844965 -0.015008463 -0.036967043 -0.028147222 -0.051130436 -0.01622519 -0.052750237 -0.034660116
0.001056408 -0.0067617353 -0.005313158 -0.04767926 -0.07669168 -0.063393384 0.010827161 -0.040855017
-0.06527202 -0.04057371 -0.017103663 -0.038563605 -0.037361015 -0.033445347 -0.04681036 -0.0122582745
-0.059823334 -0.022997012 -0.022303859 -0.046430428 -0.021304013 -0.06773657 -0.047184646 -0.07483885
-0.045902558 -0.030516027 -0.047454696 -0.06285795 -0.07502507 -0.048201203 -0.055144552 -0.023188757
-0.019761693 -0.07695553 -0.039651 -0.040192932 -0.05533752 -0.051772192 -0.04649435 -0.04317542
-0.053284902 -0.10894879 -0.048989534 -0.038033437 -0.028979389 -0.015011357 -0.06237686 -0.03740985
-0.04702635 -0.02374556 -0.09070989 -0.06683603 -0.03798606 -0.038976744 -0.012088338 -0.0085206535
-0.017844623 -0.039446607 -0.010712282 -0.022390181 -0.019374711 -0.034432996 -0.049700662 0.032376837
-0.016953006
